…
2025-10-02 15:14:41,660 - CIFAR-10_Training - INFO - DETAILED MODEL ARCHITECTURE SUMMARY
2025-10-02 15:14:41,660 - CIFAR-10_Training - INFO - ==================================================
2025-10-02 15:14:41,660 - CIFAR-10_Training - INFO - ----------------------------------------------------------------
2025-10-02 15:14:41,660 - CIFAR-10_Training - INFO -         Layer (type)               Output Shape         Param #
2025-10-02 15:14:41,660 - CIFAR-10_Training - INFO - ================================================================
2025-10-02 15:14:41,660 - CIFAR-10_Training - INFO -             Conv2d-1           [-1, 32, 32, 32]             864
2025-10-02 15:14:41,660 - CIFAR-10_Training - INFO -        BatchNorm2d-2           [-1, 32, 32, 32]              64
2025-10-02 15:14:41,661 - CIFAR-10_Training - INFO -               ReLU-3           [-1, 32, 32, 32]               0
2025-10-02 15:14:41,661 - CIFAR-10_Training - INFO -             Conv2d-4           [-1, 32, 32, 32]           9,216
2025-10-02 15:14:41,661 - CIFAR-10_Training - INFO -        BatchNorm2d-5           [-1, 32, 32, 32]              64
2025-10-02 15:14:41,661 - CIFAR-10_Training - INFO -               ReLU-6           [-1, 32, 32, 32]               0
2025-10-02 15:14:41,661 - CIFAR-10_Training - INFO -             Conv2d-7           [-1, 32, 32, 32]           9,216
2025-10-02 15:14:41,662 - CIFAR-10_Training - INFO -        BatchNorm2d-8           [-1, 32, 32, 32]              64
2025-10-02 15:14:41,662 - CIFAR-10_Training - INFO -               ReLU-9           [-1, 32, 32, 32]               0
2025-10-02 15:14:41,662 - CIFAR-10_Training - INFO -         Dropout2d-10           [-1, 32, 32, 32]               0
2025-10-02 15:14:41,662 - CIFAR-10_Training - INFO -            Conv2d-11           [-1, 32, 16, 16]           9,248
2025-10-02 15:14:41,662 - CIFAR-10_Training - INFO -       BatchNorm2d-12           [-1, 32, 16, 16]              64
2025-10-02 15:14:41,662 - CIFAR-10_Training - INFO -            Conv2d-13           [-1, 32, 16, 16]           9,216
2025-10-02 15:14:41,662 - CIFAR-10_Training - INFO -       BatchNorm2d-14           [-1, 32, 16, 16]              64
2025-10-02 15:14:41,662 - CIFAR-10_Training - INFO -              ReLU-15           [-1, 32, 16, 16]               0
2025-10-02 15:14:41,662 - CIFAR-10_Training - INFO -            Conv2d-16           [-1, 32, 16, 16]           9,216
2025-10-02 15:14:41,662 - CIFAR-10_Training - INFO -       BatchNorm2d-17           [-1, 32, 16, 16]              64
2025-10-02 15:14:41,662 - CIFAR-10_Training - INFO -              ReLU-18           [-1, 32, 16, 16]               0
2025-10-02 15:14:41,662 - CIFAR-10_Training - INFO -            Conv2d-19           [-1, 32, 16, 16]           9,216
2025-10-02 15:14:41,662 - CIFAR-10_Training - INFO -       BatchNorm2d-20           [-1, 32, 16, 16]              64
2025-10-02 15:14:41,662 - CIFAR-10_Training - INFO -              ReLU-21           [-1, 32, 16, 16]               0
2025-10-02 15:14:41,662 - CIFAR-10_Training - INFO -         Dropout2d-22           [-1, 32, 16, 16]               0
2025-10-02 15:14:41,662 - CIFAR-10_Training - INFO -            Conv2d-23             [-1, 32, 8, 8]           9,248
2025-10-02 15:14:41,662 - CIFAR-10_Training - INFO -       BatchNorm2d-24             [-1, 32, 8, 8]              64
2025-10-02 15:14:41,662 - CIFAR-10_Training - INFO -            Conv2d-25             [-1, 32, 8, 8]             320
2025-10-02 15:14:41,662 - CIFAR-10_Training - INFO -            Conv2d-26             [-1, 32, 8, 8]           1,056
2025-10-02 15:14:41,662 - CIFAR-10_Training - INFO - depthwise_separable_conv-27             [-1, 32, 8, 8]               0
2025-10-02 15:14:41,662 - CIFAR-10_Training - INFO -       BatchNorm2d-28             [-1, 32, 8, 8]              64
2025-10-02 15:14:41,662 - CIFAR-10_Training - INFO -              ReLU-29             [-1, 32, 8, 8]               0
2025-10-02 15:14:41,662 - CIFAR-10_Training - INFO -            Conv2d-30             [-1, 32, 8, 8]           9,216
2025-10-02 15:14:41,662 - CIFAR-10_Training - INFO -       BatchNorm2d-31             [-1, 32, 8, 8]              64
2025-10-02 15:14:41,662 - CIFAR-10_Training - INFO -              ReLU-32             [-1, 32, 8, 8]               0
2025-10-02 15:14:41,662 - CIFAR-10_Training - INFO -            Conv2d-33             [-1, 32, 8, 8]           9,216
2025-10-02 15:14:41,662 - CIFAR-10_Training - INFO -       BatchNorm2d-34             [-1, 32, 8, 8]              64
2025-10-02 15:14:41,662 - CIFAR-10_Training - INFO -              ReLU-35             [-1, 32, 8, 8]               0
2025-10-02 15:14:41,662 - CIFAR-10_Training - INFO -         Dropout2d-36             [-1, 32, 8, 8]               0
2025-10-02 15:14:41,662 - CIFAR-10_Training - INFO -            Conv2d-37             [-1, 32, 4, 4]           9,248
2025-10-02 15:14:41,662 - CIFAR-10_Training - INFO -       BatchNorm2d-38             [-1, 32, 4, 4]              64
2025-10-02 15:14:41,662 - CIFAR-10_Training - INFO -            Conv2d-39             [-1, 32, 4, 4]             320
2025-10-02 15:14:41,662 - CIFAR-10_Training - INFO -            Conv2d-40             [-1, 64, 4, 4]           2,112
2025-10-02 15:14:41,662 - CIFAR-10_Training - INFO - depthwise_separable_conv-41             [-1, 64, 4, 4]               0
2025-10-02 15:14:41,662 - CIFAR-10_Training - INFO -       BatchNorm2d-42             [-1, 64, 4, 4]             128
2025-10-02 15:14:41,662 - CIFAR-10_Training - INFO -              ReLU-43             [-1, 64, 4, 4]               0
2025-10-02 15:14:41,662 - CIFAR-10_Training - INFO -            Conv2d-44             [-1, 64, 4, 4]          36,864
2025-10-02 15:14:41,662 - CIFAR-10_Training - INFO -       BatchNorm2d-45             [-1, 64, 4, 4]             128
2025-10-02 15:14:41,662 - CIFAR-10_Training - INFO -              ReLU-46             [-1, 64, 4, 4]               0
2025-10-02 15:14:41,662 - CIFAR-10_Training - INFO -         Dropout2d-47             [-1, 64, 4, 4]               0
2025-10-02 15:14:41,662 - CIFAR-10_Training - INFO -         AvgPool2d-48             [-1, 64, 1, 1]               0
2025-10-02 15:14:41,662 - CIFAR-10_Training - INFO -            Linear-49                  [-1, 128]           8,320
2025-10-02 15:14:41,662 - CIFAR-10_Training - INFO -            Linear-50                   [-1, 10]           1,290
2025-10-02 15:14:41,662 - CIFAR-10_Training - INFO - ================================================================
2025-10-02 15:14:41,662 - CIFAR-10_Training - INFO - Total params: 144,426
2025-10-02 15:14:41,666 - CIFAR-10_Training - INFO - Trainable params: 144,426
2025-10-02 15:14:41,666 - CIFAR-10_Training - INFO - Non-trainable params: 0
2025-10-02 15:14:41,666 - CIFAR-10_Training - INFO - ----------------------------------------------------------------
…
