…
2025-10-02 12:20:11,923 - CIFAR-10_Training - INFO - DETAILED MODEL ARCHITECTURE SUMMARY
2025-10-02 12:20:11,923 - CIFAR-10_Training - INFO - ==================================================
2025-10-02 12:20:11,923 - CIFAR-10_Training - INFO - ----------------------------------------------------------------
2025-10-02 12:20:11,924 - CIFAR-10_Training - INFO -         Layer (type)               Output Shape         Param #
2025-10-02 12:20:11,924 - CIFAR-10_Training - INFO - ================================================================
2025-10-02 12:20:11,924 - CIFAR-10_Training - INFO -             Conv2d-1           [-1, 32, 32, 32]             864
2025-10-02 12:20:11,924 - CIFAR-10_Training - INFO -        BatchNorm2d-2           [-1, 32, 32, 32]              64
2025-10-02 12:20:11,924 - CIFAR-10_Training - INFO -               ReLU-3           [-1, 32, 32, 32]               0
2025-10-02 12:20:11,925 - CIFAR-10_Training - INFO -          Dropout2d-4           [-1, 32, 32, 32]               0
2025-10-02 12:20:11,925 - CIFAR-10_Training - INFO -             Conv2d-5           [-1, 32, 32, 32]           9,216
2025-10-02 12:20:11,925 - CIFAR-10_Training - INFO -        BatchNorm2d-6           [-1, 32, 32, 32]              64
2025-10-02 12:20:11,926 - CIFAR-10_Training - INFO -               ReLU-7           [-1, 32, 32, 32]               0
2025-10-02 12:20:11,926 - CIFAR-10_Training - INFO -          Dropout2d-8           [-1, 32, 32, 32]               0
2025-10-02 12:20:11,926 - CIFAR-10_Training - INFO -             Conv2d-9           [-1, 32, 32, 32]           9,216
2025-10-02 12:20:11,927 - CIFAR-10_Training - INFO -       BatchNorm2d-10           [-1, 32, 32, 32]              64
2025-10-02 12:20:11,927 - CIFAR-10_Training - INFO -              ReLU-11           [-1, 32, 32, 32]               0
2025-10-02 12:20:11,927 - CIFAR-10_Training - INFO -         Dropout2d-12           [-1, 32, 32, 32]               0
2025-10-02 12:20:11,928 - CIFAR-10_Training - INFO -            Conv2d-13           [-1, 32, 16, 16]           9,248
2025-10-02 12:20:11,928 - CIFAR-10_Training - INFO -       BatchNorm2d-14           [-1, 32, 16, 16]              64
2025-10-02 12:20:11,929 - CIFAR-10_Training - INFO -            Conv2d-15           [-1, 32, 16, 16]           9,216
2025-10-02 12:20:11,930 - CIFAR-10_Training - INFO -       BatchNorm2d-16           [-1, 32, 16, 16]              64
2025-10-02 12:20:11,930 - CIFAR-10_Training - INFO -              ReLU-17           [-1, 32, 16, 16]               0
2025-10-02 12:20:11,930 - CIFAR-10_Training - INFO -         Dropout2d-18           [-1, 32, 16, 16]               0
2025-10-02 12:20:11,931 - CIFAR-10_Training - INFO -            Conv2d-19           [-1, 32, 16, 16]           9,216
2025-10-02 12:20:11,932 - CIFAR-10_Training - INFO -       BatchNorm2d-20           [-1, 32, 16, 16]              64
2025-10-02 12:20:11,932 - CIFAR-10_Training - INFO -              ReLU-21           [-1, 32, 16, 16]               0
2025-10-02 12:20:11,932 - CIFAR-10_Training - INFO -         Dropout2d-22           [-1, 32, 16, 16]               0
2025-10-02 12:20:11,933 - CIFAR-10_Training - INFO -            Conv2d-23           [-1, 32, 16, 16]           9,216
2025-10-02 12:20:11,933 - CIFAR-10_Training - INFO -       BatchNorm2d-24           [-1, 32, 16, 16]              64
2025-10-02 12:20:11,933 - CIFAR-10_Training - INFO -              ReLU-25           [-1, 32, 16, 16]               0
2025-10-02 12:20:11,933 - CIFAR-10_Training - INFO -         Dropout2d-26           [-1, 32, 16, 16]               0
2025-10-02 12:20:11,933 - CIFAR-10_Training - INFO -            Conv2d-27             [-1, 32, 8, 8]           9,248
2025-10-02 12:20:11,935 - CIFAR-10_Training - INFO -       BatchNorm2d-28             [-1, 32, 8, 8]              64
2025-10-02 12:20:11,935 - CIFAR-10_Training - INFO -            Conv2d-29             [-1, 32, 8, 8]             320
2025-10-02 12:20:11,935 - CIFAR-10_Training - INFO -            Conv2d-30             [-1, 32, 8, 8]           1,056
2025-10-02 12:20:11,936 - CIFAR-10_Training - INFO - depthwise_separable_conv-31             [-1, 32, 8, 8]               0
2025-10-02 12:20:11,936 - CIFAR-10_Training - INFO -       BatchNorm2d-32             [-1, 32, 8, 8]              64
2025-10-02 12:20:11,937 - CIFAR-10_Training - INFO -              ReLU-33             [-1, 32, 8, 8]               0
2025-10-02 12:20:11,937 - CIFAR-10_Training - INFO -         Dropout2d-34             [-1, 32, 8, 8]               0
2025-10-02 12:20:11,938 - CIFAR-10_Training - INFO -            Conv2d-35             [-1, 32, 8, 8]           9,216
2025-10-02 12:20:11,938 - CIFAR-10_Training - INFO -       BatchNorm2d-36             [-1, 32, 8, 8]              64
2025-10-02 12:20:11,939 - CIFAR-10_Training - INFO -              ReLU-37             [-1, 32, 8, 8]               0
2025-10-02 12:20:11,939 - CIFAR-10_Training - INFO -         Dropout2d-38             [-1, 32, 8, 8]               0
2025-10-02 12:20:11,939 - CIFAR-10_Training - INFO -            Conv2d-39             [-1, 32, 8, 8]           9,216
2025-10-02 12:20:11,940 - CIFAR-10_Training - INFO -       BatchNorm2d-40             [-1, 32, 8, 8]              64
2025-10-02 12:20:11,940 - CIFAR-10_Training - INFO -              ReLU-41             [-1, 32, 8, 8]               0
2025-10-02 12:20:11,941 - CIFAR-10_Training - INFO -         Dropout2d-42             [-1, 32, 8, 8]               0
2025-10-02 12:20:11,942 - CIFAR-10_Training - INFO -            Conv2d-43             [-1, 32, 4, 4]           9,248
2025-10-02 12:20:11,942 - CIFAR-10_Training - INFO -       BatchNorm2d-44             [-1, 32, 4, 4]              64
2025-10-02 12:20:11,943 - CIFAR-10_Training - INFO -            Conv2d-45             [-1, 32, 4, 4]             320
2025-10-02 12:20:11,944 - CIFAR-10_Training - INFO -            Conv2d-46             [-1, 64, 4, 4]           2,112
2025-10-02 12:20:11,944 - CIFAR-10_Training - INFO - depthwise_separable_conv-47             [-1, 64, 4, 4]               0
2025-10-02 12:20:11,945 - CIFAR-10_Training - INFO -       BatchNorm2d-48             [-1, 64, 4, 4]             128
2025-10-02 12:20:11,945 - CIFAR-10_Training - INFO -              ReLU-49             [-1, 64, 4, 4]               0
2025-10-02 12:20:11,946 - CIFAR-10_Training - INFO -         Dropout2d-50             [-1, 64, 4, 4]               0
2025-10-02 12:20:11,948 - CIFAR-10_Training - INFO -            Conv2d-51             [-1, 64, 4, 4]          36,864
2025-10-02 12:20:11,949 - CIFAR-10_Training - INFO -       BatchNorm2d-52             [-1, 64, 4, 4]             128
2025-10-02 12:20:11,949 - CIFAR-10_Training - INFO -              ReLU-53             [-1, 64, 4, 4]               0
2025-10-02 12:20:11,949 - CIFAR-10_Training - INFO -         Dropout2d-54             [-1, 64, 4, 4]               0
2025-10-02 12:20:11,950 - CIFAR-10_Training - INFO -         AvgPool2d-55             [-1, 64, 1, 1]               0
2025-10-02 12:20:11,950 - CIFAR-10_Training - INFO -            Linear-56                  [-1, 128]           8,320
2025-10-02 12:20:11,952 - CIFAR-10_Training - INFO -            Linear-57                   [-1, 10]           1,290
2025-10-02 12:20:11,952 - CIFAR-10_Training - INFO - ================================================================
2025-10-02 12:20:11,953 - CIFAR-10_Training - INFO - Total params: 144,426
2025-10-02 12:20:11,954 - CIFAR-10_Training - INFO - Trainable params: 144,426
2025-10-02 12:20:11,955 - CIFAR-10_Training - INFO - Non-trainable params: 0
2025-10-02 12:20:11,955 - CIFAR-10_Training - INFO - ----------------------------------------------------------------
…
