…
2025-10-02 08:18:11,860 - CIFAR-10_Training - INFO - DETAILED MODEL ARCHITECTURE SUMMARY
2025-10-02 08:18:11,860 - CIFAR-10_Training - INFO - ==================================================
2025-10-02 08:18:11,860 - CIFAR-10_Training - INFO - ----------------------------------------------------------------
2025-10-02 08:18:11,860 - CIFAR-10_Training - INFO -         Layer (type)               Output Shape         Param #
2025-10-02 08:18:11,860 - CIFAR-10_Training - INFO - ================================================================
2025-10-02 08:18:11,869 - CIFAR-10_Training - INFO -             Conv2d-1           [-1, 32, 32, 32]             864
2025-10-02 08:18:11,869 - CIFAR-10_Training - INFO -        BatchNorm2d-2           [-1, 32, 32, 32]              64
2025-10-02 08:18:11,869 - CIFAR-10_Training - INFO -               ReLU-3           [-1, 32, 32, 32]               0
2025-10-02 08:18:11,870 - CIFAR-10_Training - INFO -          Dropout2d-4           [-1, 32, 32, 32]               0
2025-10-02 08:18:11,870 - CIFAR-10_Training - INFO -             Conv2d-5           [-1, 32, 32, 32]           9,216
2025-10-02 08:18:11,870 - CIFAR-10_Training - INFO -        BatchNorm2d-6           [-1, 32, 32, 32]              64
2025-10-02 08:18:11,870 - CIFAR-10_Training - INFO -               ReLU-7           [-1, 32, 32, 32]               0
2025-10-02 08:18:11,870 - CIFAR-10_Training - INFO -          Dropout2d-8           [-1, 32, 32, 32]               0
2025-10-02 08:18:11,870 - CIFAR-10_Training - INFO -             Conv2d-9           [-1, 32, 32, 32]           9,216
2025-10-02 08:18:11,870 - CIFAR-10_Training - INFO -       BatchNorm2d-10           [-1, 32, 32, 32]              64
2025-10-02 08:18:11,870 - CIFAR-10_Training - INFO -              ReLU-11           [-1, 32, 32, 32]               0
2025-10-02 08:18:11,870 - CIFAR-10_Training - INFO -         Dropout2d-12           [-1, 32, 32, 32]               0
2025-10-02 08:18:11,870 - CIFAR-10_Training - INFO -            Conv2d-13           [-1, 32, 32, 32]           9,216
2025-10-02 08:18:11,870 - CIFAR-10_Training - INFO -       BatchNorm2d-14           [-1, 32, 32, 32]              64
2025-10-02 08:18:11,870 - CIFAR-10_Training - INFO -              ReLU-15           [-1, 32, 32, 32]               0
2025-10-02 08:18:11,870 - CIFAR-10_Training - INFO -         Dropout2d-16           [-1, 32, 32, 32]               0
2025-10-02 08:18:11,870 - CIFAR-10_Training - INFO -            Conv2d-17           [-1, 32, 16, 16]           9,248
2025-10-02 08:18:11,874 - CIFAR-10_Training - INFO -       BatchNorm2d-18           [-1, 32, 16, 16]              64
2025-10-02 08:18:11,875 - CIFAR-10_Training - INFO -            Conv2d-19           [-1, 32, 16, 16]           9,216
2025-10-02 08:18:11,875 - CIFAR-10_Training - INFO -       BatchNorm2d-20           [-1, 32, 16, 16]              64
2025-10-02 08:18:11,875 - CIFAR-10_Training - INFO -              ReLU-21           [-1, 32, 16, 16]               0
2025-10-02 08:18:11,875 - CIFAR-10_Training - INFO -         Dropout2d-22           [-1, 32, 16, 16]               0
2025-10-02 08:18:11,875 - CIFAR-10_Training - INFO -            Conv2d-23           [-1, 32, 16, 16]           9,216
2025-10-02 08:18:11,875 - CIFAR-10_Training - INFO -       BatchNorm2d-24           [-1, 32, 16, 16]              64
2025-10-02 08:18:11,876 - CIFAR-10_Training - INFO -              ReLU-25           [-1, 32, 16, 16]               0
2025-10-02 08:18:11,876 - CIFAR-10_Training - INFO -         Dropout2d-26           [-1, 32, 16, 16]               0
2025-10-02 08:18:11,883 - CIFAR-10_Training - INFO -            Conv2d-27           [-1, 32, 16, 16]           9,216
2025-10-02 08:18:11,884 - CIFAR-10_Training - INFO -       BatchNorm2d-28           [-1, 32, 16, 16]              64
2025-10-02 08:18:11,884 - CIFAR-10_Training - INFO -              ReLU-29           [-1, 32, 16, 16]               0
2025-10-02 08:18:11,884 - CIFAR-10_Training - INFO -         Dropout2d-30           [-1, 32, 16, 16]               0
2025-10-02 08:18:11,886 - CIFAR-10_Training - INFO -            Conv2d-31             [-1, 32, 8, 8]           9,248
2025-10-02 08:18:11,886 - CIFAR-10_Training - INFO -       BatchNorm2d-32             [-1, 32, 8, 8]              64
2025-10-02 08:18:11,886 - CIFAR-10_Training - INFO -            Conv2d-33             [-1, 32, 8, 8]             320
2025-10-02 08:18:11,886 - CIFAR-10_Training - INFO -            Conv2d-34             [-1, 32, 8, 8]           1,056
2025-10-02 08:18:11,886 - CIFAR-10_Training - INFO - depthwise_separable_conv-35             [-1, 32, 8, 8]               0
2025-10-02 08:18:11,886 - CIFAR-10_Training - INFO -       BatchNorm2d-36             [-1, 32, 8, 8]              64
2025-10-02 08:18:11,888 - CIFAR-10_Training - INFO -              ReLU-37             [-1, 32, 8, 8]               0
2025-10-02 08:18:11,888 - CIFAR-10_Training - INFO -         Dropout2d-38             [-1, 32, 8, 8]               0
2025-10-02 08:18:11,888 - CIFAR-10_Training - INFO -            Conv2d-39             [-1, 32, 8, 8]           9,216
2025-10-02 08:18:11,890 - CIFAR-10_Training - INFO -       BatchNorm2d-40             [-1, 32, 8, 8]              64
2025-10-02 08:18:11,892 - CIFAR-10_Training - INFO -              ReLU-41             [-1, 32, 8, 8]               0
2025-10-02 08:18:11,893 - CIFAR-10_Training - INFO -         Dropout2d-42             [-1, 32, 8, 8]               0
2025-10-02 08:18:11,893 - CIFAR-10_Training - INFO -            Conv2d-43             [-1, 32, 8, 8]           9,216
2025-10-02 08:18:11,893 - CIFAR-10_Training - INFO -       BatchNorm2d-44             [-1, 32, 8, 8]              64
2025-10-02 08:18:11,893 - CIFAR-10_Training - INFO -              ReLU-45             [-1, 32, 8, 8]               0
2025-10-02 08:18:11,895 - CIFAR-10_Training - INFO -         Dropout2d-46             [-1, 32, 8, 8]               0
2025-10-02 08:18:11,895 - CIFAR-10_Training - INFO -            Conv2d-47             [-1, 32, 4, 4]           9,248
2025-10-02 08:18:11,895 - CIFAR-10_Training - INFO -       BatchNorm2d-48             [-1, 32, 4, 4]              64
2025-10-02 08:18:11,895 - CIFAR-10_Training - INFO -            Conv2d-49             [-1, 32, 4, 4]             320
2025-10-02 08:18:11,895 - CIFAR-10_Training - INFO -            Conv2d-50             [-1, 64, 4, 4]           2,112
2025-10-02 08:18:11,895 - CIFAR-10_Training - INFO - depthwise_separable_conv-51             [-1, 64, 4, 4]               0
2025-10-02 08:18:11,898 - CIFAR-10_Training - INFO -       BatchNorm2d-52             [-1, 64, 4, 4]             128
2025-10-02 08:18:11,898 - CIFAR-10_Training - INFO -              ReLU-53             [-1, 64, 4, 4]               0
2025-10-02 08:18:11,898 - CIFAR-10_Training - INFO -         Dropout2d-54             [-1, 64, 4, 4]               0
2025-10-02 08:18:11,898 - CIFAR-10_Training - INFO -            Conv2d-55             [-1, 64, 4, 4]          36,864
2025-10-02 08:18:11,899 - CIFAR-10_Training - INFO -       BatchNorm2d-56             [-1, 64, 4, 4]             128
2025-10-02 08:18:11,899 - CIFAR-10_Training - INFO -              ReLU-57             [-1, 64, 4, 4]               0
2025-10-02 08:18:11,900 - CIFAR-10_Training - INFO -         Dropout2d-58             [-1, 64, 4, 4]               0
2025-10-02 08:18:11,900 - CIFAR-10_Training - INFO -         AvgPool2d-59             [-1, 64, 1, 1]               0
2025-10-02 08:18:11,900 - CIFAR-10_Training - INFO -            Linear-60                  [-1, 100]           6,500
2025-10-02 08:18:11,902 - CIFAR-10_Training - INFO -            Linear-61                   [-1, 10]           1,010
2025-10-02 08:18:11,903 - CIFAR-10_Training - INFO - ================================================================
2025-10-02 08:18:11,903 - CIFAR-10_Training - INFO - Total params: 151,606
2025-10-02 08:18:11,904 - CIFAR-10_Training - INFO - Trainable params: 151,606
2025-10-02 08:18:11,904 - CIFAR-10_Training - INFO - Non-trainable params: 0
2025-10-02 08:18:11,904 - CIFAR-10_Training - INFO - ----------------------------------------------------------------
…
