…
2025-10-01 19:03:52,359 - CIFAR-10_Training - INFO - DETAILED MODEL ARCHITECTURE SUMMARY
2025-10-01 19:03:52,359 - CIFAR-10_Training - INFO - ==================================================
2025-10-01 19:03:52,359 - CIFAR-10_Training - INFO - ----------------------------------------------------------------
2025-10-01 19:03:52,359 - CIFAR-10_Training - INFO -         Layer (type)               Output Shape         Param #
2025-10-01 19:03:52,359 - CIFAR-10_Training - INFO - ================================================================
2025-10-01 19:03:52,359 - CIFAR-10_Training - INFO -             Conv2d-1           [-1, 32, 32, 32]             864
2025-10-01 19:03:52,359 - CIFAR-10_Training - INFO -        BatchNorm2d-2           [-1, 32, 32, 32]              64
2025-10-01 19:03:52,359 - CIFAR-10_Training - INFO -               ReLU-3           [-1, 32, 32, 32]               0
2025-10-01 19:03:52,359 - CIFAR-10_Training - INFO -          Dropout2d-4           [-1, 32, 32, 32]               0
2025-10-01 19:03:52,359 - CIFAR-10_Training - INFO -             Conv2d-5           [-1, 32, 32, 32]           9,216
2025-10-01 19:03:52,366 - CIFAR-10_Training - INFO -        BatchNorm2d-6           [-1, 32, 32, 32]              64
2025-10-01 19:03:52,366 - CIFAR-10_Training - INFO -               ReLU-7           [-1, 32, 32, 32]               0
2025-10-01 19:03:52,366 - CIFAR-10_Training - INFO -          Dropout2d-8           [-1, 32, 32, 32]               0
2025-10-01 19:03:52,366 - CIFAR-10_Training - INFO -             Conv2d-9           [-1, 32, 32, 32]           9,216
2025-10-01 19:03:52,366 - CIFAR-10_Training - INFO -       BatchNorm2d-10           [-1, 32, 32, 32]              64
2025-10-01 19:03:52,366 - CIFAR-10_Training - INFO -              ReLU-11           [-1, 32, 32, 32]               0
2025-10-01 19:03:52,366 - CIFAR-10_Training - INFO -         Dropout2d-12           [-1, 32, 32, 32]               0
2025-10-01 19:03:52,371 - CIFAR-10_Training - INFO -            Conv2d-13           [-1, 32, 32, 32]           9,216
2025-10-01 19:03:52,371 - CIFAR-10_Training - INFO -       BatchNorm2d-14           [-1, 32, 32, 32]              64
2025-10-01 19:03:52,371 - CIFAR-10_Training - INFO -              ReLU-15           [-1, 32, 32, 32]               0
2025-10-01 19:03:52,374 - CIFAR-10_Training - INFO -         Dropout2d-16           [-1, 32, 32, 32]               0
2025-10-01 19:03:52,374 - CIFAR-10_Training - INFO -            Conv2d-17           [-1, 32, 16, 16]           9,248
2025-10-01 19:03:52,374 - CIFAR-10_Training - INFO -       BatchNorm2d-18           [-1, 32, 16, 16]              64
2025-10-01 19:03:52,374 - CIFAR-10_Training - INFO -            Conv2d-19           [-1, 32, 16, 16]           9,216
2025-10-01 19:03:52,374 - CIFAR-10_Training - INFO -       BatchNorm2d-20           [-1, 32, 16, 16]              64
2025-10-01 19:03:52,374 - CIFAR-10_Training - INFO -              ReLU-21           [-1, 32, 16, 16]               0
2025-10-01 19:03:52,374 - CIFAR-10_Training - INFO -         Dropout2d-22           [-1, 32, 16, 16]               0
2025-10-01 19:03:52,374 - CIFAR-10_Training - INFO -            Conv2d-23           [-1, 32, 16, 16]           9,216
2025-10-01 19:03:52,374 - CIFAR-10_Training - INFO -       BatchNorm2d-24           [-1, 32, 16, 16]              64
2025-10-01 19:03:52,374 - CIFAR-10_Training - INFO -              ReLU-25           [-1, 32, 16, 16]               0
2025-10-01 19:03:52,374 - CIFAR-10_Training - INFO -         Dropout2d-26           [-1, 32, 16, 16]               0
2025-10-01 19:03:52,374 - CIFAR-10_Training - INFO -            Conv2d-27           [-1, 32, 16, 16]           9,216
2025-10-01 19:03:52,374 - CIFAR-10_Training - INFO -       BatchNorm2d-28           [-1, 32, 16, 16]              64
2025-10-01 19:03:52,374 - CIFAR-10_Training - INFO -              ReLU-29           [-1, 32, 16, 16]               0
2025-10-01 19:03:52,374 - CIFAR-10_Training - INFO -         Dropout2d-30           [-1, 32, 16, 16]               0
2025-10-01 19:03:52,374 - CIFAR-10_Training - INFO -            Conv2d-31             [-1, 32, 8, 8]           9,248
2025-10-01 19:03:52,374 - CIFAR-10_Training - INFO -       BatchNorm2d-32             [-1, 32, 8, 8]              64
2025-10-01 19:03:52,374 - CIFAR-10_Training - INFO -            Conv2d-33             [-1, 32, 8, 8]             320
2025-10-01 19:03:52,374 - CIFAR-10_Training - INFO -            Conv2d-34             [-1, 32, 8, 8]           1,056
2025-10-01 19:03:52,381 - CIFAR-10_Training - INFO - depthwise_separable_conv-35             [-1, 32, 8, 8]               0
2025-10-01 19:03:52,381 - CIFAR-10_Training - INFO -       BatchNorm2d-36             [-1, 32, 8, 8]              64
2025-10-01 19:03:52,381 - CIFAR-10_Training - INFO -              ReLU-37             [-1, 32, 8, 8]               0
2025-10-01 19:03:52,381 - CIFAR-10_Training - INFO -         Dropout2d-38             [-1, 32, 8, 8]               0
2025-10-01 19:03:52,383 - CIFAR-10_Training - INFO -            Conv2d-39             [-1, 32, 8, 8]           9,216
2025-10-01 19:03:52,383 - CIFAR-10_Training - INFO -       BatchNorm2d-40             [-1, 32, 8, 8]              64
2025-10-01 19:03:52,383 - CIFAR-10_Training - INFO -              ReLU-41             [-1, 32, 8, 8]               0
2025-10-01 19:03:52,383 - CIFAR-10_Training - INFO -         Dropout2d-42             [-1, 32, 8, 8]               0
2025-10-01 19:03:52,383 - CIFAR-10_Training - INFO -            Conv2d-43             [-1, 32, 4, 4]           9,248
2025-10-01 19:03:52,383 - CIFAR-10_Training - INFO -       BatchNorm2d-44             [-1, 32, 4, 4]              64
2025-10-01 19:03:52,383 - CIFAR-10_Training - INFO -            Conv2d-45             [-1, 64, 4, 4]          18,432
2025-10-01 19:03:52,387 - CIFAR-10_Training - INFO -       BatchNorm2d-46             [-1, 64, 4, 4]             128
2025-10-01 19:03:52,387 - CIFAR-10_Training - INFO -              ReLU-47             [-1, 64, 4, 4]               0
2025-10-01 19:03:52,387 - CIFAR-10_Training - INFO -         Dropout2d-48             [-1, 64, 4, 4]               0
2025-10-01 19:03:52,387 - CIFAR-10_Training - INFO -            Conv2d-49             [-1, 64, 4, 4]          36,864
2025-10-01 19:03:52,387 - CIFAR-10_Training - INFO -       BatchNorm2d-50             [-1, 64, 4, 4]             128
2025-10-01 19:03:52,387 - CIFAR-10_Training - INFO -              ReLU-51             [-1, 64, 4, 4]               0
2025-10-01 19:03:52,387 - CIFAR-10_Training - INFO -         Dropout2d-52             [-1, 64, 4, 4]               0
2025-10-01 19:03:52,387 - CIFAR-10_Training - INFO -            Conv2d-53             [-1, 64, 4, 4]          36,864
2025-10-01 19:03:52,387 - CIFAR-10_Training - INFO -       BatchNorm2d-54             [-1, 64, 4, 4]             128
2025-10-01 19:03:52,387 - CIFAR-10_Training - INFO -              ReLU-55             [-1, 64, 4, 4]               0
2025-10-01 19:03:52,387 - CIFAR-10_Training - INFO -         Dropout2d-56             [-1, 64, 4, 4]               0
2025-10-01 19:03:52,395 - CIFAR-10_Training - INFO -            Conv2d-57            [-1, 128, 4, 4]           8,192
2025-10-01 19:03:52,395 - CIFAR-10_Training - INFO -       BatchNorm2d-58            [-1, 128, 4, 4]             256
2025-10-01 19:03:52,395 - CIFAR-10_Training - INFO -              ReLU-59            [-1, 128, 4, 4]               0
2025-10-01 19:03:52,398 - CIFAR-10_Training - INFO -         Dropout2d-60            [-1, 128, 4, 4]               0
2025-10-01 19:03:52,398 - CIFAR-10_Training - INFO -         AvgPool2d-61            [-1, 128, 1, 1]               0
2025-10-01 19:03:52,399 - CIFAR-10_Training - INFO -            Linear-62                  [-1, 100]          12,900
2025-10-01 19:03:52,405 - CIFAR-10_Training - INFO -            Linear-63                   [-1, 10]           1,010
2025-10-01 19:03:52,405 - CIFAR-10_Training - INFO - ================================================================
2025-10-01 19:03:52,407 - CIFAR-10_Training - INFO - Total params: 210,166
2025-10-01 19:03:52,415 - CIFAR-10_Training - INFO - Trainable params: 210,166
2025-10-01 19:03:52,419 - CIFAR-10_Training - INFO - Non-trainable params: 0
2025-10-01 19:03:52,445 - CIFAR-10_Training - INFO - ----------------------------------------------------------------
…
