…
2025-09-25 02:11:34,680 - MNIST_Training - INFO - DETAILED MODEL ARCHITECTURE SUMMARY
2025-09-25 02:11:34,680 - MNIST_Training - INFO - ==================================================
2025-09-25 02:11:34,680 - MNIST_Training - INFO - ----------------------------------------------------------------
2025-09-25 02:11:34,680 - MNIST_Training - INFO -         Layer (type)               Output Shape         Param #
2025-09-25 02:11:34,680 - MNIST_Training - INFO - ================================================================
2025-09-25 02:11:34,680 - MNIST_Training - INFO -             Conv2d-1           [-1, 10, 28, 28]              90
2025-09-25 02:11:34,680 - MNIST_Training - INFO -               ReLU-2           [-1, 10, 28, 28]               0
2025-09-25 02:11:34,680 - MNIST_Training - INFO -             Conv2d-3           [-1, 10, 28, 28]             900
2025-09-25 02:11:34,680 - MNIST_Training - INFO -               ReLU-4           [-1, 10, 28, 28]               0
2025-09-25 02:11:34,680 - MNIST_Training - INFO -             Conv2d-5           [-1, 10, 28, 28]             900
2025-09-25 02:11:34,680 - MNIST_Training - INFO -               ReLU-6           [-1, 10, 28, 28]               0
2025-09-25 02:11:34,680 - MNIST_Training - INFO -          MaxPool2d-7           [-1, 10, 14, 14]               0
2025-09-25 02:11:34,680 - MNIST_Training - INFO -             Conv2d-8            [-1, 8, 14, 14]             720
2025-09-25 02:11:34,680 - MNIST_Training - INFO -               ReLU-9            [-1, 8, 14, 14]               0
2025-09-25 02:11:34,680 - MNIST_Training - INFO -            Conv2d-10            [-1, 8, 14, 14]             576
2025-09-25 02:11:34,680 - MNIST_Training - INFO -              ReLU-11            [-1, 8, 14, 14]               0
2025-09-25 02:11:34,680 - MNIST_Training - INFO -         MaxPool2d-12              [-1, 8, 7, 7]               0
2025-09-25 02:11:34,680 - MNIST_Training - INFO -            Conv2d-13              [-1, 8, 5, 5]             576
2025-09-25 02:11:34,680 - MNIST_Training - INFO -              ReLU-14              [-1, 8, 5, 5]               0
2025-09-25 02:11:34,680 - MNIST_Training - INFO -            Conv2d-15              [-1, 8, 3, 3]             576
2025-09-25 02:11:34,680 - MNIST_Training - INFO -              ReLU-16              [-1, 8, 3, 3]               0
2025-09-25 02:11:34,680 - MNIST_Training - INFO -            Linear-17                   [-1, 20]           1,460
2025-09-25 02:11:34,680 - MNIST_Training - INFO -            Linear-18                   [-1, 10]             210
2025-09-25 02:11:34,680 - MNIST_Training - INFO - ================================================================
2025-09-25 02:11:34,680 - MNIST_Training - INFO - Total params: 6,008
2025-09-25 02:11:34,680 - MNIST_Training - INFO - Trainable params: 6,008
2025-09-25 02:11:34,680 - MNIST_Training - INFO - Non-trainable params: 0
2025-09-25 02:11:34,680 - MNIST_Training - INFO - ----------------------------------------------------------------
…
