…
2025-09-25 01:18:30,956 - MNIST_Training - INFO - DETAILED MODEL ARCHITECTURE SUMMARY
2025-09-25 01:18:30,956 - MNIST_Training - INFO - ==================================================
2025-09-25 01:18:30,956 - MNIST_Training - INFO - ----------------------------------------------------------------
2025-09-25 01:18:30,956 - MNIST_Training - INFO -         Layer (type)               Output Shape         Param #
2025-09-25 01:18:30,972 - MNIST_Training - INFO - ================================================================
2025-09-25 01:18:30,972 - MNIST_Training - INFO -             Conv2d-1           [-1, 32, 28, 28]             320
2025-09-25 01:18:30,972 - MNIST_Training - INFO -             Conv2d-2           [-1, 64, 28, 28]          18,496
2025-09-25 01:18:30,972 - MNIST_Training - INFO -          MaxPool2d-3           [-1, 64, 14, 14]               0
2025-09-25 01:18:30,972 - MNIST_Training - INFO -             Conv2d-4          [-1, 128, 14, 14]          73,856
2025-09-25 01:18:30,972 - MNIST_Training - INFO -             Conv2d-5          [-1, 256, 14, 14]         295,168
2025-09-25 01:18:30,972 - MNIST_Training - INFO -          MaxPool2d-6            [-1, 256, 7, 7]               0
2025-09-25 01:18:30,972 - MNIST_Training - INFO -             Conv2d-7            [-1, 512, 5, 5]       1,180,160
2025-09-25 01:18:30,972 - MNIST_Training - INFO -             Conv2d-8           [-1, 1024, 3, 3]       4,719,616
2025-09-25 01:18:30,972 - MNIST_Training - INFO -             Conv2d-9             [-1, 10, 1, 1]          92,170
2025-09-25 01:18:30,972 - MNIST_Training - INFO - ================================================================
2025-09-25 01:18:30,972 - MNIST_Training - INFO - Total params: 6,379,786
2025-09-25 01:18:30,972 - MNIST_Training - INFO - Trainable params: 6,379,786
2025-09-25 01:18:30,972 - MNIST_Training - INFO - Non-trainable params: 0
2025-09-25 01:18:30,972 - MNIST_Training - INFO - ----------------------------------------------------------------
…
