…
2025-09-25 01:39:52,311 - MNIST_Training - INFO - DETAILED MODEL ARCHITECTURE SUMMARY
2025-09-25 01:39:52,311 - MNIST_Training - INFO - ==================================================
2025-09-25 01:39:52,311 - MNIST_Training - INFO - ----------------------------------------------------------------
2025-09-25 01:39:52,311 - MNIST_Training - INFO -         Layer (type)               Output Shape         Param #
2025-09-25 01:39:52,311 - MNIST_Training - INFO - ================================================================
2025-09-25 01:39:52,311 - MNIST_Training - INFO -             Conv2d-1           [-1, 16, 28, 28]             144
2025-09-25 01:39:52,311 - MNIST_Training - INFO -               ReLU-2           [-1, 16, 28, 28]               0
2025-09-25 01:39:52,311 - MNIST_Training - INFO -             Conv2d-3           [-1, 16, 28, 28]           2,304
2025-09-25 01:39:52,311 - MNIST_Training - INFO -               ReLU-4           [-1, 16, 28, 28]               0
2025-09-25 01:39:52,311 - MNIST_Training - INFO -             Conv2d-5           [-1, 16, 28, 28]           2,304
2025-09-25 01:39:52,311 - MNIST_Training - INFO -               ReLU-6           [-1, 16, 28, 28]               0
2025-09-25 01:39:52,311 - MNIST_Training - INFO -          MaxPool2d-7           [-1, 16, 14, 14]               0
2025-09-25 01:39:52,311 - MNIST_Training - INFO -             Conv2d-8           [-1, 32, 14, 14]           4,608
2025-09-25 01:39:52,311 - MNIST_Training - INFO -               ReLU-9           [-1, 32, 14, 14]               0
2025-09-25 01:39:52,311 - MNIST_Training - INFO -            Conv2d-10           [-1, 32, 14, 14]           9,216
2025-09-25 01:39:52,311 - MNIST_Training - INFO -              ReLU-11           [-1, 32, 14, 14]               0
2025-09-25 01:39:52,311 - MNIST_Training - INFO -         MaxPool2d-12             [-1, 32, 7, 7]               0
2025-09-25 01:39:52,311 - MNIST_Training - INFO -            Conv2d-13             [-1, 64, 7, 7]          18,432
2025-09-25 01:39:52,311 - MNIST_Training - INFO -              ReLU-14             [-1, 64, 7, 7]               0
2025-09-25 01:39:52,311 - MNIST_Training - INFO -            Conv2d-15             [-1, 64, 7, 7]          36,864
2025-09-25 01:39:52,311 - MNIST_Training - INFO -              ReLU-16             [-1, 64, 7, 7]               0
2025-09-25 01:39:52,311 - MNIST_Training - INFO -            Linear-17                  [-1, 100]         313,700
2025-09-25 01:39:52,311 - MNIST_Training - INFO -            Linear-18                   [-1, 10]           1,010
2025-09-25 01:39:52,311 - MNIST_Training - INFO - ================================================================
2025-09-25 01:39:52,311 - MNIST_Training - INFO - Total params: 388,582
2025-09-25 01:39:52,311 - MNIST_Training - INFO - Trainable params: 388,582
2025-09-25 01:39:52,311 - MNIST_Training - INFO - Non-trainable params: 0
2025-09-25 01:39:52,311 - MNIST_Training - INFO - ----------------------------------------------------------------
…
