…
2025-09-29 17:28:27,342 - CIFAR-10_Training - INFO - DETAILED MODEL ARCHITECTURE SUMMARY
2025-09-29 17:28:27,342 - CIFAR-10_Training - INFO - ==================================================
2025-09-29 17:28:27,342 - CIFAR-10_Training - INFO - ----------------------------------------------------------------
2025-09-29 17:28:27,342 - CIFAR-10_Training - INFO -         Layer (type)               Output Shape         Param #
2025-09-29 17:28:27,342 - CIFAR-10_Training - INFO - ================================================================
2025-09-29 17:28:27,342 - CIFAR-10_Training - INFO -             Conv2d-1           [-1, 16, 32, 32]             432
2025-09-29 17:28:27,342 - CIFAR-10_Training - INFO -               ReLU-2           [-1, 16, 32, 32]               0
2025-09-29 17:28:27,342 - CIFAR-10_Training - INFO -             Conv2d-3           [-1, 16, 32, 32]           2,304
2025-09-29 17:28:27,342 - CIFAR-10_Training - INFO -               ReLU-4           [-1, 16, 32, 32]               0
2025-09-29 17:28:27,342 - CIFAR-10_Training - INFO -             Conv2d-5           [-1, 16, 32, 32]           2,304
2025-09-29 17:28:27,342 - CIFAR-10_Training - INFO -               ReLU-6           [-1, 16, 32, 32]               0
2025-09-29 17:28:27,342 - CIFAR-10_Training - INFO -          MaxPool2d-7           [-1, 16, 16, 16]               0
2025-09-29 17:28:27,342 - CIFAR-10_Training - INFO -             Conv2d-8           [-1, 32, 16, 16]           4,608
2025-09-29 17:28:27,342 - CIFAR-10_Training - INFO -               ReLU-9           [-1, 32, 16, 16]               0
2025-09-29 17:28:27,342 - CIFAR-10_Training - INFO -            Conv2d-10           [-1, 32, 16, 16]           9,216
2025-09-29 17:28:27,342 - CIFAR-10_Training - INFO -              ReLU-11           [-1, 32, 16, 16]               0
2025-09-29 17:28:27,342 - CIFAR-10_Training - INFO -            Conv2d-12           [-1, 32, 16, 16]           9,216
2025-09-29 17:28:27,342 - CIFAR-10_Training - INFO -              ReLU-13           [-1, 32, 16, 16]               0
2025-09-29 17:28:27,342 - CIFAR-10_Training - INFO -         MaxPool2d-14             [-1, 32, 8, 8]               0
2025-09-29 17:28:27,342 - CIFAR-10_Training - INFO -            Conv2d-15             [-1, 64, 8, 8]          18,432
2025-09-29 17:28:27,342 - CIFAR-10_Training - INFO -              ReLU-16             [-1, 64, 8, 8]               0
2025-09-29 17:28:27,342 - CIFAR-10_Training - INFO -            Conv2d-17             [-1, 64, 8, 8]          36,864
2025-09-29 17:28:27,342 - CIFAR-10_Training - INFO -              ReLU-18             [-1, 64, 8, 8]               0
2025-09-29 17:28:27,342 - CIFAR-10_Training - INFO -            Conv2d-19             [-1, 64, 8, 8]          36,864
2025-09-29 17:28:27,342 - CIFAR-10_Training - INFO -              ReLU-20             [-1, 64, 8, 8]               0
2025-09-29 17:28:27,342 - CIFAR-10_Training - INFO -            Linear-21                   [-1, 30]         122,910
2025-09-29 17:28:27,342 - CIFAR-10_Training - INFO -            Linear-22                   [-1, 10]             310
2025-09-29 17:28:27,342 - CIFAR-10_Training - INFO - ================================================================
2025-09-29 17:28:27,342 - CIFAR-10_Training - INFO - Total params: 243,460
2025-09-29 17:28:27,342 - CIFAR-10_Training - INFO - Trainable params: 243,460
2025-09-29 17:28:27,347 - CIFAR-10_Training - INFO - Non-trainable params: 0
2025-09-29 17:28:27,347 - CIFAR-10_Training - INFO - ----------------------------------------------------------------
…
