…
2025-09-30 11:33:11,316 - CIFAR-10_Training - INFO - DETAILED MODEL ARCHITECTURE SUMMARY
2025-09-30 11:33:11,316 - CIFAR-10_Training - INFO - ==================================================
2025-09-30 11:33:11,316 - CIFAR-10_Training - INFO - ----------------------------------------------------------------
2025-09-30 11:33:11,316 - CIFAR-10_Training - INFO -         Layer (type)               Output Shape         Param #
2025-09-30 11:33:11,316 - CIFAR-10_Training - INFO - ================================================================
2025-09-30 11:33:11,316 - CIFAR-10_Training - INFO -             Conv2d-1           [-1, 16, 32, 32]             432
2025-09-30 11:33:11,316 - CIFAR-10_Training - INFO -        BatchNorm2d-2           [-1, 16, 32, 32]              32
2025-09-30 11:33:11,316 - CIFAR-10_Training - INFO -               ReLU-3           [-1, 16, 32, 32]               0
2025-09-30 11:33:11,316 - CIFAR-10_Training - INFO -             Conv2d-4           [-1, 32, 32, 32]           4,608
2025-09-30 11:33:11,316 - CIFAR-10_Training - INFO -        BatchNorm2d-5           [-1, 32, 32, 32]              64
2025-09-30 11:33:11,316 - CIFAR-10_Training - INFO -               ReLU-6           [-1, 32, 32, 32]               0
2025-09-30 11:33:11,316 - CIFAR-10_Training - INFO -             Conv2d-7           [-1, 32, 32, 32]           9,216
2025-09-30 11:33:11,316 - CIFAR-10_Training - INFO -        BatchNorm2d-8           [-1, 32, 32, 32]              64
2025-09-30 11:33:11,316 - CIFAR-10_Training - INFO -               ReLU-9           [-1, 32, 32, 32]               0
2025-09-30 11:33:11,316 - CIFAR-10_Training - INFO -            Conv2d-10           [-1, 32, 32, 32]           9,216
2025-09-30 11:33:11,316 - CIFAR-10_Training - INFO -       BatchNorm2d-11           [-1, 32, 32, 32]              64
2025-09-30 11:33:11,332 - CIFAR-10_Training - INFO -              ReLU-12           [-1, 32, 32, 32]               0
2025-09-30 11:33:11,332 - CIFAR-10_Training - INFO -         MaxPool2d-13           [-1, 32, 16, 16]               0
2025-09-30 11:33:11,332 - CIFAR-10_Training - INFO -            Conv2d-14           [-1, 64, 16, 16]          18,432
2025-09-30 11:33:11,332 - CIFAR-10_Training - INFO -       BatchNorm2d-15           [-1, 64, 16, 16]             128
2025-09-30 11:33:11,332 - CIFAR-10_Training - INFO -              ReLU-16           [-1, 64, 16, 16]               0
2025-09-30 11:33:11,332 - CIFAR-10_Training - INFO -            Conv2d-17           [-1, 64, 16, 16]          36,864
2025-09-30 11:33:11,332 - CIFAR-10_Training - INFO -       BatchNorm2d-18           [-1, 64, 16, 16]             128
2025-09-30 11:33:11,332 - CIFAR-10_Training - INFO -              ReLU-19           [-1, 64, 16, 16]               0
2025-09-30 11:33:11,332 - CIFAR-10_Training - INFO -            Conv2d-20           [-1, 64, 16, 16]          36,864
2025-09-30 11:33:11,332 - CIFAR-10_Training - INFO -       BatchNorm2d-21           [-1, 64, 16, 16]             128
2025-09-30 11:33:11,332 - CIFAR-10_Training - INFO -              ReLU-22           [-1, 64, 16, 16]               0
2025-09-30 11:33:11,332 - CIFAR-10_Training - INFO -         MaxPool2d-23             [-1, 64, 8, 8]               0
2025-09-30 11:33:11,332 - CIFAR-10_Training - INFO -            Conv2d-24            [-1, 128, 8, 8]          73,728
2025-09-30 11:33:11,332 - CIFAR-10_Training - INFO -       BatchNorm2d-25            [-1, 128, 8, 8]             256
2025-09-30 11:33:11,332 - CIFAR-10_Training - INFO -              ReLU-26            [-1, 128, 8, 8]               0
2025-09-30 11:33:11,332 - CIFAR-10_Training - INFO -            Conv2d-27            [-1, 128, 8, 8]         147,456
2025-09-30 11:33:11,332 - CIFAR-10_Training - INFO -       BatchNorm2d-28            [-1, 128, 8, 8]             256
2025-09-30 11:33:11,332 - CIFAR-10_Training - INFO -              ReLU-29            [-1, 128, 8, 8]               0
2025-09-30 11:33:11,332 - CIFAR-10_Training - INFO -            Conv2d-30            [-1, 128, 8, 8]         147,456
2025-09-30 11:33:11,332 - CIFAR-10_Training - INFO -       BatchNorm2d-31            [-1, 128, 8, 8]             256
2025-09-30 11:33:11,332 - CIFAR-10_Training - INFO -              ReLU-32            [-1, 128, 8, 8]               0
2025-09-30 11:33:11,332 - CIFAR-10_Training - INFO -         MaxPool2d-33            [-1, 128, 4, 4]               0
2025-09-30 11:33:11,332 - CIFAR-10_Training - INFO -            Conv2d-34             [-1, 64, 4, 4]          73,728
2025-09-30 11:33:11,332 - CIFAR-10_Training - INFO -       BatchNorm2d-35             [-1, 64, 4, 4]             128
2025-09-30 11:33:11,332 - CIFAR-10_Training - INFO -              ReLU-36             [-1, 64, 4, 4]               0
2025-09-30 11:33:11,332 - CIFAR-10_Training - INFO -            Conv2d-37             [-1, 32, 4, 4]          18,432
2025-09-30 11:33:11,332 - CIFAR-10_Training - INFO -       BatchNorm2d-38             [-1, 32, 4, 4]              64
2025-09-30 11:33:11,332 - CIFAR-10_Training - INFO -              ReLU-39             [-1, 32, 4, 4]               0
2025-09-30 11:33:11,332 - CIFAR-10_Training - INFO -            Conv2d-40             [-1, 16, 4, 4]           4,608
2025-09-30 11:33:11,332 - CIFAR-10_Training - INFO -       BatchNorm2d-41             [-1, 16, 4, 4]              32
2025-09-30 11:33:11,348 - CIFAR-10_Training - INFO -              ReLU-42             [-1, 16, 4, 4]               0
2025-09-30 11:33:11,348 - CIFAR-10_Training - INFO -            Conv2d-43            [-1, 128, 4, 4]          18,432
2025-09-30 11:33:11,348 - CIFAR-10_Training - INFO -       BatchNorm2d-44            [-1, 128, 4, 4]             256
2025-09-30 11:33:11,348 - CIFAR-10_Training - INFO -              ReLU-45            [-1, 128, 4, 4]               0
2025-09-30 11:33:11,348 - CIFAR-10_Training - INFO -            Conv2d-46             [-1, 10, 4, 4]           1,280
2025-09-30 11:33:11,364 - CIFAR-10_Training - INFO -       BatchNorm2d-47             [-1, 10, 4, 4]              20
2025-09-30 11:33:11,364 - CIFAR-10_Training - INFO -              ReLU-48             [-1, 10, 4, 4]               0
2025-09-30 11:33:11,364 - CIFAR-10_Training - INFO - AdaptiveAvgPool2d-49             [-1, 10, 1, 1]               0
2025-09-30 11:33:11,364 - CIFAR-10_Training - INFO - ================================================================
2025-09-30 11:33:11,364 - CIFAR-10_Training - INFO - Total params: 602,628
2025-09-30 11:33:11,364 - CIFAR-10_Training - INFO - Trainable params: 602,628
2025-09-30 11:33:11,364 - CIFAR-10_Training - INFO - Non-trainable params: 0
2025-09-30 11:33:11,364 - CIFAR-10_Training - INFO - ----------------------------------------------------------------
…
