…
2025-09-30 09:24:23,025 - CIFAR-10_Training - INFO - DETAILED MODEL ARCHITECTURE SUMMARY
2025-09-30 09:24:23,025 - CIFAR-10_Training - INFO - ==================================================
2025-09-30 09:24:23,025 - CIFAR-10_Training - INFO - ----------------------------------------------------------------
2025-09-30 09:24:23,025 - CIFAR-10_Training - INFO -         Layer (type)               Output Shape         Param #
2025-09-30 09:24:23,025 - CIFAR-10_Training - INFO - ================================================================
2025-09-30 09:24:23,025 - CIFAR-10_Training - INFO -             Conv2d-1           [-1, 32, 32, 32]             864
2025-09-30 09:24:23,025 - CIFAR-10_Training - INFO -        BatchNorm2d-2           [-1, 32, 32, 32]              64
2025-09-30 09:24:23,025 - CIFAR-10_Training - INFO -               ReLU-3           [-1, 32, 32, 32]               0
2025-09-30 09:24:23,025 - CIFAR-10_Training - INFO -          Dropout2d-4           [-1, 32, 32, 32]               0
2025-09-30 09:24:23,025 - CIFAR-10_Training - INFO -             Conv2d-5           [-1, 32, 32, 32]           9,216
2025-09-30 09:24:23,025 - CIFAR-10_Training - INFO -        BatchNorm2d-6           [-1, 32, 32, 32]              64
2025-09-30 09:24:23,025 - CIFAR-10_Training - INFO -               ReLU-7           [-1, 32, 32, 32]               0
2025-09-30 09:24:23,025 - CIFAR-10_Training - INFO -          Dropout2d-8           [-1, 32, 32, 32]               0
2025-09-30 09:24:23,025 - CIFAR-10_Training - INFO -             Conv2d-9           [-1, 32, 32, 32]           9,216
2025-09-30 09:24:23,025 - CIFAR-10_Training - INFO -       BatchNorm2d-10           [-1, 32, 32, 32]              64
2025-09-30 09:24:23,025 - CIFAR-10_Training - INFO -              ReLU-11           [-1, 32, 32, 32]               0
2025-09-30 09:24:23,025 - CIFAR-10_Training - INFO -         Dropout2d-12           [-1, 32, 32, 32]               0
2025-09-30 09:24:23,025 - CIFAR-10_Training - INFO -         MaxPool2d-13           [-1, 32, 16, 16]               0
2025-09-30 09:24:23,025 - CIFAR-10_Training - INFO -            Conv2d-14           [-1, 64, 16, 16]          18,432
2025-09-30 09:24:23,025 - CIFAR-10_Training - INFO -       BatchNorm2d-15           [-1, 64, 16, 16]             128
2025-09-30 09:24:23,041 - CIFAR-10_Training - INFO -              ReLU-16           [-1, 64, 16, 16]               0
2025-09-30 09:24:23,041 - CIFAR-10_Training - INFO -         Dropout2d-17           [-1, 64, 16, 16]               0
2025-09-30 09:24:23,041 - CIFAR-10_Training - INFO -            Conv2d-18           [-1, 64, 16, 16]          36,864
2025-09-30 09:24:23,041 - CIFAR-10_Training - INFO -       BatchNorm2d-19           [-1, 64, 16, 16]             128
2025-09-30 09:24:23,041 - CIFAR-10_Training - INFO -              ReLU-20           [-1, 64, 16, 16]               0
2025-09-30 09:24:23,041 - CIFAR-10_Training - INFO -         Dropout2d-21           [-1, 64, 16, 16]               0
2025-09-30 09:24:23,041 - CIFAR-10_Training - INFO -            Conv2d-22           [-1, 64, 16, 16]          36,864
2025-09-30 09:24:23,041 - CIFAR-10_Training - INFO -       BatchNorm2d-23           [-1, 64, 16, 16]             128
2025-09-30 09:24:23,041 - CIFAR-10_Training - INFO -              ReLU-24           [-1, 64, 16, 16]               0
2025-09-30 09:24:23,041 - CIFAR-10_Training - INFO -         Dropout2d-25           [-1, 64, 16, 16]               0
2025-09-30 09:24:23,041 - CIFAR-10_Training - INFO -         MaxPool2d-26             [-1, 64, 8, 8]               0
2025-09-30 09:24:23,041 - CIFAR-10_Training - INFO -            Conv2d-27            [-1, 128, 8, 8]          73,728
2025-09-30 09:24:23,041 - CIFAR-10_Training - INFO -       BatchNorm2d-28            [-1, 128, 8, 8]             256
2025-09-30 09:24:23,041 - CIFAR-10_Training - INFO -              ReLU-29            [-1, 128, 8, 8]               0
2025-09-30 09:24:23,041 - CIFAR-10_Training - INFO -         Dropout2d-30            [-1, 128, 8, 8]               0
2025-09-30 09:24:23,041 - CIFAR-10_Training - INFO -            Conv2d-31             [-1, 16, 8, 8]          18,432
2025-09-30 09:24:23,056 - CIFAR-10_Training - INFO -       BatchNorm2d-32             [-1, 16, 8, 8]              32
2025-09-30 09:24:23,056 - CIFAR-10_Training - INFO -              ReLU-33             [-1, 16, 8, 8]               0
2025-09-30 09:24:23,056 - CIFAR-10_Training - INFO -         Dropout2d-34             [-1, 16, 8, 8]               0
2025-09-30 09:24:23,072 - CIFAR-10_Training - INFO -         MaxPool2d-35             [-1, 16, 4, 4]               0
2025-09-30 09:24:23,088 - CIFAR-10_Training - INFO -            Conv2d-36              [-1, 8, 4, 4]           1,152
2025-09-30 09:24:23,103 - CIFAR-10_Training - INFO -       BatchNorm2d-37              [-1, 8, 4, 4]              16
2025-09-30 09:24:23,103 - CIFAR-10_Training - INFO -              ReLU-38              [-1, 8, 4, 4]               0
2025-09-30 09:24:23,119 - CIFAR-10_Training - INFO -         Dropout2d-39              [-1, 8, 4, 4]               0
2025-09-30 09:24:23,135 - CIFAR-10_Training - INFO -            Conv2d-40             [-1, 16, 4, 4]           1,152
2025-09-30 09:24:23,135 - CIFAR-10_Training - INFO -       BatchNorm2d-41             [-1, 16, 4, 4]              32
2025-09-30 09:24:23,135 - CIFAR-10_Training - INFO -              ReLU-42             [-1, 16, 4, 4]               0
2025-09-30 09:24:23,135 - CIFAR-10_Training - INFO -         Dropout2d-43             [-1, 16, 4, 4]               0
2025-09-30 09:24:23,135 - CIFAR-10_Training - INFO -            Conv2d-44            [-1, 128, 4, 4]          18,432
2025-09-30 09:24:23,151 - CIFAR-10_Training - INFO -       BatchNorm2d-45            [-1, 128, 4, 4]             256
2025-09-30 09:24:23,151 - CIFAR-10_Training - INFO -              ReLU-46            [-1, 128, 4, 4]               0
2025-09-30 09:24:23,151 - CIFAR-10_Training - INFO -         Dropout2d-47            [-1, 128, 4, 4]               0
2025-09-30 09:24:23,166 - CIFAR-10_Training - INFO -            Conv2d-48             [-1, 10, 4, 4]           1,280
2025-09-30 09:24:23,166 - CIFAR-10_Training - INFO -       BatchNorm2d-49             [-1, 10, 4, 4]              20
2025-09-30 09:24:23,166 - CIFAR-10_Training - INFO -              ReLU-50             [-1, 10, 4, 4]               0
2025-09-30 09:24:23,166 - CIFAR-10_Training - INFO - AdaptiveAvgPool2d-51             [-1, 10, 1, 1]               0
2025-09-30 09:24:23,166 - CIFAR-10_Training - INFO - ================================================================
2025-09-30 09:24:23,166 - CIFAR-10_Training - INFO - Total params: 226,820
2025-09-30 09:24:23,166 - CIFAR-10_Training - INFO - Trainable params: 226,820
2025-09-30 09:24:23,166 - CIFAR-10_Training - INFO - Non-trainable params: 0
2025-09-30 09:24:23,166 - CIFAR-10_Training - INFO - ----------------------------------------------------------------
…
