…
2025-09-29 16:20:42,662 - CIFAR-10_Training - INFO - DETAILED MODEL ARCHITECTURE SUMMARY
2025-09-29 16:20:42,663 - CIFAR-10_Training - INFO - ==================================================
2025-09-29 16:20:42,663 - CIFAR-10_Training - INFO - ----------------------------------------------------------------
2025-09-29 16:20:42,663 - CIFAR-10_Training - INFO -         Layer (type)               Output Shape         Param #
2025-09-29 16:20:42,663 - CIFAR-10_Training - INFO - ================================================================
2025-09-29 16:20:42,663 - CIFAR-10_Training - INFO -             Conv2d-1           [-1, 32, 32, 32]             864
2025-09-29 16:20:42,663 - CIFAR-10_Training - INFO -               ReLU-2           [-1, 32, 32, 32]               0
2025-09-29 16:20:42,663 - CIFAR-10_Training - INFO -             Conv2d-3           [-1, 32, 32, 32]           9,216
2025-09-29 16:20:42,663 - CIFAR-10_Training - INFO -               ReLU-4           [-1, 32, 32, 32]               0
2025-09-29 16:20:42,663 - CIFAR-10_Training - INFO -             Conv2d-5           [-1, 32, 32, 32]           9,216
2025-09-29 16:20:42,673 - CIFAR-10_Training - INFO -               ReLU-6           [-1, 32, 32, 32]               0
2025-09-29 16:20:42,676 - CIFAR-10_Training - INFO -          MaxPool2d-7           [-1, 32, 16, 16]               0
2025-09-29 16:20:42,677 - CIFAR-10_Training - INFO -             Conv2d-8           [-1, 64, 16, 16]          18,432
2025-09-29 16:20:42,677 - CIFAR-10_Training - INFO -               ReLU-9           [-1, 64, 16, 16]               0
2025-09-29 16:20:42,680 - CIFAR-10_Training - INFO -            Conv2d-10           [-1, 64, 16, 16]          36,864
2025-09-29 16:20:42,683 - CIFAR-10_Training - INFO -              ReLU-11           [-1, 64, 16, 16]               0
2025-09-29 16:20:42,684 - CIFAR-10_Training - INFO -         MaxPool2d-12             [-1, 64, 8, 8]               0
2025-09-29 16:20:42,684 - CIFAR-10_Training - INFO -            Conv2d-13            [-1, 128, 6, 6]          73,728
2025-09-29 16:20:42,686 - CIFAR-10_Training - INFO -              ReLU-14            [-1, 128, 6, 6]               0
2025-09-29 16:20:42,686 - CIFAR-10_Training - INFO -            Conv2d-15             [-1, 64, 4, 4]          73,728
2025-09-29 16:20:42,687 - CIFAR-10_Training - INFO -              ReLU-16             [-1, 64, 4, 4]               0
2025-09-29 16:20:42,687 - CIFAR-10_Training - INFO -            Linear-17                   [-1, 30]          30,750
2025-09-29 16:20:42,687 - CIFAR-10_Training - INFO -            Linear-18                   [-1, 10]             310
2025-09-29 16:20:42,688 - CIFAR-10_Training - INFO - ================================================================
2025-09-29 16:20:42,688 - CIFAR-10_Training - INFO - Total params: 253,108
2025-09-29 16:20:42,689 - CIFAR-10_Training - INFO - Trainable params: 253,108
2025-09-29 16:20:42,689 - CIFAR-10_Training - INFO - Non-trainable params: 0
2025-09-29 16:20:42,690 - CIFAR-10_Training - INFO - ----------------------------------------------------------------
…
