…
2025-09-30 13:20:05,670 - CIFAR-10_Training - INFO - DETAILED MODEL ARCHITECTURE SUMMARY
2025-09-30 13:20:05,671 - CIFAR-10_Training - INFO - ==================================================
2025-09-30 13:20:05,671 - CIFAR-10_Training - INFO - ----------------------------------------------------------------
2025-09-30 13:20:05,672 - CIFAR-10_Training - INFO -         Layer (type)               Output Shape         Param #
2025-09-30 13:20:05,672 - CIFAR-10_Training - INFO - ================================================================
2025-09-30 13:20:05,673 - CIFAR-10_Training - INFO -             Conv2d-1            [-1, 8, 32, 32]             216
2025-09-30 13:20:05,673 - CIFAR-10_Training - INFO -        BatchNorm2d-2            [-1, 8, 32, 32]              16
2025-09-30 13:20:05,673 - CIFAR-10_Training - INFO -               ReLU-3            [-1, 8, 32, 32]               0
2025-09-30 13:20:05,674 - CIFAR-10_Training - INFO -             Conv2d-4           [-1, 16, 32, 32]           1,152
2025-09-30 13:20:05,674 - CIFAR-10_Training - INFO -        BatchNorm2d-5           [-1, 16, 32, 32]              32
2025-09-30 13:20:05,675 - CIFAR-10_Training - INFO -               ReLU-6           [-1, 16, 32, 32]               0
2025-09-30 13:20:05,676 - CIFAR-10_Training - INFO -             Conv2d-7           [-1, 16, 32, 32]           2,304
2025-09-30 13:20:05,677 - CIFAR-10_Training - INFO -        BatchNorm2d-8           [-1, 16, 32, 32]              32
2025-09-30 13:20:05,677 - CIFAR-10_Training - INFO -               ReLU-9           [-1, 16, 32, 32]               0
2025-09-30 13:20:05,678 - CIFAR-10_Training - INFO -            Conv2d-10           [-1, 16, 32, 32]           2,304
2025-09-30 13:20:05,679 - CIFAR-10_Training - INFO -       BatchNorm2d-11           [-1, 16, 32, 32]              32
2025-09-30 13:20:05,679 - CIFAR-10_Training - INFO -              ReLU-12           [-1, 16, 32, 32]               0
2025-09-30 13:20:05,680 - CIFAR-10_Training - INFO -         MaxPool2d-13           [-1, 16, 16, 16]               0
2025-09-30 13:20:05,684 - CIFAR-10_Training - INFO -            Conv2d-14           [-1, 32, 16, 16]           4,608
2025-09-30 13:20:05,685 - CIFAR-10_Training - INFO -       BatchNorm2d-15           [-1, 32, 16, 16]              64
2025-09-30 13:20:05,685 - CIFAR-10_Training - INFO -              ReLU-16           [-1, 32, 16, 16]               0
2025-09-30 13:20:05,690 - CIFAR-10_Training - INFO -            Conv2d-17           [-1, 32, 16, 16]           9,216
2025-09-30 13:20:05,691 - CIFAR-10_Training - INFO -       BatchNorm2d-18           [-1, 32, 16, 16]              64
2025-09-30 13:20:05,692 - CIFAR-10_Training - INFO -              ReLU-19           [-1, 32, 16, 16]               0
2025-09-30 13:20:05,693 - CIFAR-10_Training - INFO -            Conv2d-20           [-1, 32, 16, 16]           9,216
2025-09-30 13:20:05,694 - CIFAR-10_Training - INFO -       BatchNorm2d-21           [-1, 32, 16, 16]              64
2025-09-30 13:20:05,695 - CIFAR-10_Training - INFO -              ReLU-22           [-1, 32, 16, 16]               0
2025-09-30 13:20:05,696 - CIFAR-10_Training - INFO -         MaxPool2d-23             [-1, 32, 8, 8]               0
2025-09-30 13:20:05,697 - CIFAR-10_Training - INFO -            Conv2d-24             [-1, 64, 8, 8]          18,432
2025-09-30 13:20:05,702 - CIFAR-10_Training - INFO -       BatchNorm2d-25             [-1, 64, 8, 8]             128
2025-09-30 13:20:05,703 - CIFAR-10_Training - INFO -              ReLU-26             [-1, 64, 8, 8]               0
2025-09-30 13:20:05,706 - CIFAR-10_Training - INFO -            Conv2d-27             [-1, 64, 8, 8]          36,864
2025-09-30 13:20:05,708 - CIFAR-10_Training - INFO -       BatchNorm2d-28             [-1, 64, 8, 8]             128
2025-09-30 13:20:05,711 - CIFAR-10_Training - INFO -              ReLU-29             [-1, 64, 8, 8]               0
2025-09-30 13:20:05,713 - CIFAR-10_Training - INFO -            Conv2d-30             [-1, 64, 8, 8]          36,864
2025-09-30 13:20:05,715 - CIFAR-10_Training - INFO -       BatchNorm2d-31             [-1, 64, 8, 8]             128
2025-09-30 13:20:05,715 - CIFAR-10_Training - INFO -              ReLU-32             [-1, 64, 8, 8]               0
2025-09-30 13:20:05,722 - CIFAR-10_Training - INFO -         MaxPool2d-33             [-1, 64, 4, 4]               0
2025-09-30 13:20:05,725 - CIFAR-10_Training - INFO -            Conv2d-34             [-1, 32, 4, 4]          18,432
2025-09-30 13:20:05,728 - CIFAR-10_Training - INFO -       BatchNorm2d-35             [-1, 32, 4, 4]              64
2025-09-30 13:20:05,728 - CIFAR-10_Training - INFO -              ReLU-36             [-1, 32, 4, 4]               0
2025-09-30 13:20:05,729 - CIFAR-10_Training - INFO -            Conv2d-37             [-1, 32, 4, 4]           9,216
2025-09-30 13:20:05,730 - CIFAR-10_Training - INFO -       BatchNorm2d-38             [-1, 32, 4, 4]              64
2025-09-30 13:20:05,730 - CIFAR-10_Training - INFO -              ReLU-39             [-1, 32, 4, 4]               0
2025-09-30 13:20:05,733 - CIFAR-10_Training - INFO -            Conv2d-40             [-1, 16, 4, 4]           4,608
2025-09-30 13:20:05,734 - CIFAR-10_Training - INFO -       BatchNorm2d-41             [-1, 16, 4, 4]              32
2025-09-30 13:20:05,734 - CIFAR-10_Training - INFO -              ReLU-42             [-1, 16, 4, 4]               0
2025-09-30 13:20:05,735 - CIFAR-10_Training - INFO -            Conv2d-43            [-1, 128, 4, 4]          18,432
2025-09-30 13:20:05,736 - CIFAR-10_Training - INFO -       BatchNorm2d-44            [-1, 128, 4, 4]             256
2025-09-30 13:20:05,737 - CIFAR-10_Training - INFO -              ReLU-45            [-1, 128, 4, 4]               0
2025-09-30 13:20:05,741 - CIFAR-10_Training - INFO -            Conv2d-46             [-1, 10, 4, 4]           1,280
2025-09-30 13:20:05,744 - CIFAR-10_Training - INFO -       BatchNorm2d-47             [-1, 10, 4, 4]              20
2025-09-30 13:20:05,746 - CIFAR-10_Training - INFO -              ReLU-48             [-1, 10, 4, 4]               0
2025-09-30 13:20:05,757 - CIFAR-10_Training - INFO - AdaptiveAvgPool2d-49             [-1, 10, 1, 1]               0
2025-09-30 13:20:05,757 - CIFAR-10_Training - INFO - ================================================================
2025-09-30 13:20:05,758 - CIFAR-10_Training - INFO - Total params: 174,268
2025-09-30 13:20:05,759 - CIFAR-10_Training - INFO - Trainable params: 174,268
2025-09-30 13:20:05,759 - CIFAR-10_Training - INFO - Non-trainable params: 0
2025-09-30 13:20:05,759 - CIFAR-10_Training - INFO - ----------------------------------------------------------------
…
