…
2025-10-04 16:30:02,038 - CIFAR-100_Training - INFO - DETAILED MODEL ARCHITECTURE SUMMARY
2025-10-04 16:30:02,038 - CIFAR-100_Training - INFO - ==================================================
2025-10-04 16:30:02,038 - CIFAR-100_Training - INFO - ----------------------------------------------------------------
2025-10-04 16:30:02,038 - CIFAR-100_Training - INFO -         Layer (type)               Output Shape         Param #
2025-10-04 16:30:02,038 - CIFAR-100_Training - INFO - ================================================================
2025-10-04 16:30:02,038 - CIFAR-100_Training - INFO -             Conv2d-1            [-1, 8, 32, 32]             216
2025-10-04 16:30:02,038 - CIFAR-100_Training - INFO -        BatchNorm2d-2            [-1, 8, 32, 32]              16
2025-10-04 16:30:02,038 - CIFAR-100_Training - INFO -               ReLU-3            [-1, 8, 32, 32]               0
2025-10-04 16:30:02,038 - CIFAR-100_Training - INFO -             Conv2d-4            [-1, 8, 32, 32]             576
2025-10-04 16:30:02,038 - CIFAR-100_Training - INFO -        BatchNorm2d-5            [-1, 8, 32, 32]              16
2025-10-04 16:30:02,038 - CIFAR-100_Training - INFO -               ReLU-6            [-1, 8, 32, 32]               0
2025-10-04 16:30:02,038 - CIFAR-100_Training - INFO -             Conv2d-7            [-1, 8, 32, 32]             576
2025-10-04 16:30:02,038 - CIFAR-100_Training - INFO -        BatchNorm2d-8            [-1, 8, 32, 32]              16
2025-10-04 16:30:02,038 - CIFAR-100_Training - INFO -               ReLU-9            [-1, 8, 32, 32]               0
2025-10-04 16:30:02,038 - CIFAR-100_Training - INFO -            Conv2d-10            [-1, 8, 32, 32]             576
2025-10-04 16:30:02,038 - CIFAR-100_Training - INFO -       BatchNorm2d-11            [-1, 8, 32, 32]              16
2025-10-04 16:30:02,038 - CIFAR-100_Training - INFO -              ReLU-12            [-1, 8, 32, 32]               0
2025-10-04 16:30:02,038 - CIFAR-100_Training - INFO -         MaxPool2d-13            [-1, 8, 16, 16]               0
2025-10-04 16:30:02,038 - CIFAR-100_Training - INFO -            Conv2d-14           [-1, 16, 16, 16]           1,152
2025-10-04 16:30:02,038 - CIFAR-100_Training - INFO -       BatchNorm2d-15           [-1, 16, 16, 16]              32
2025-10-04 16:30:02,038 - CIFAR-100_Training - INFO -              ReLU-16           [-1, 16, 16, 16]               0
2025-10-04 16:30:02,038 - CIFAR-100_Training - INFO -            Conv2d-17           [-1, 16, 16, 16]           2,304
2025-10-04 16:30:02,038 - CIFAR-100_Training - INFO -       BatchNorm2d-18           [-1, 16, 16, 16]              32
2025-10-04 16:30:02,038 - CIFAR-100_Training - INFO -              ReLU-19           [-1, 16, 16, 16]               0
2025-10-04 16:30:02,038 - CIFAR-100_Training - INFO -            Conv2d-20           [-1, 16, 16, 16]           2,304
2025-10-04 16:30:02,038 - CIFAR-100_Training - INFO -       BatchNorm2d-21           [-1, 16, 16, 16]              32
2025-10-04 16:30:02,038 - CIFAR-100_Training - INFO -              ReLU-22           [-1, 16, 16, 16]               0
2025-10-04 16:30:02,046 - CIFAR-100_Training - INFO -         MaxPool2d-23             [-1, 16, 8, 8]               0
2025-10-04 16:30:02,046 - CIFAR-100_Training - INFO -            Conv2d-24             [-1, 32, 8, 8]           4,608
2025-10-04 16:30:02,046 - CIFAR-100_Training - INFO -       BatchNorm2d-25             [-1, 32, 8, 8]              64
2025-10-04 16:30:02,046 - CIFAR-100_Training - INFO -              ReLU-26             [-1, 32, 8, 8]               0
2025-10-04 16:30:02,046 - CIFAR-100_Training - INFO -            Conv2d-27             [-1, 32, 8, 8]           9,216
2025-10-04 16:30:02,046 - CIFAR-100_Training - INFO -       BatchNorm2d-28             [-1, 32, 8, 8]              64
2025-10-04 16:30:02,046 - CIFAR-100_Training - INFO -              ReLU-29             [-1, 32, 8, 8]               0
2025-10-04 16:30:02,046 - CIFAR-100_Training - INFO -            Conv2d-30             [-1, 32, 8, 8]           9,216
2025-10-04 16:30:02,046 - CIFAR-100_Training - INFO -       BatchNorm2d-31             [-1, 32, 8, 8]              64
2025-10-04 16:30:02,046 - CIFAR-100_Training - INFO -              ReLU-32             [-1, 32, 8, 8]               0
2025-10-04 16:30:02,046 - CIFAR-100_Training - INFO -         MaxPool2d-33             [-1, 32, 4, 4]               0
2025-10-04 16:30:02,046 - CIFAR-100_Training - INFO -            Conv2d-34             [-1, 64, 4, 4]          18,432
2025-10-04 16:30:02,046 - CIFAR-100_Training - INFO -       BatchNorm2d-35             [-1, 64, 4, 4]             128
2025-10-04 16:30:02,046 - CIFAR-100_Training - INFO -              ReLU-36             [-1, 64, 4, 4]               0
2025-10-04 16:30:02,046 - CIFAR-100_Training - INFO -            Conv2d-37             [-1, 32, 4, 4]          18,432
2025-10-04 16:30:02,046 - CIFAR-100_Training - INFO -       BatchNorm2d-38             [-1, 32, 4, 4]              64
2025-10-04 16:30:02,046 - CIFAR-100_Training - INFO -              ReLU-39             [-1, 32, 4, 4]               0
2025-10-04 16:30:02,046 - CIFAR-100_Training - INFO -            Conv2d-40             [-1, 16, 4, 4]           4,608
2025-10-04 16:30:02,046 - CIFAR-100_Training - INFO -       BatchNorm2d-41             [-1, 16, 4, 4]              32
2025-10-04 16:30:02,046 - CIFAR-100_Training - INFO -              ReLU-42             [-1, 16, 4, 4]               0
2025-10-04 16:30:02,046 - CIFAR-100_Training - INFO -            Conv2d-43            [-1, 128, 4, 4]          18,432
2025-10-04 16:30:02,046 - CIFAR-100_Training - INFO -       BatchNorm2d-44            [-1, 128, 4, 4]             256
2025-10-04 16:30:02,046 - CIFAR-100_Training - INFO -              ReLU-45            [-1, 128, 4, 4]               0
2025-10-04 16:30:02,046 - CIFAR-100_Training - INFO -            Conv2d-46            [-1, 100, 4, 4]          12,800
2025-10-04 16:30:02,046 - CIFAR-100_Training - INFO -       BatchNorm2d-47            [-1, 100, 4, 4]             200
2025-10-04 16:30:02,046 - CIFAR-100_Training - INFO -              ReLU-48            [-1, 100, 4, 4]               0
2025-10-04 16:30:02,046 - CIFAR-100_Training - INFO - AdaptiveAvgPool2d-49            [-1, 100, 1, 1]               0
2025-10-04 16:30:02,046 - CIFAR-100_Training - INFO - ================================================================
2025-10-04 16:30:02,046 - CIFAR-100_Training - INFO - Total params: 104,480
2025-10-04 16:30:02,046 - CIFAR-100_Training - INFO - Trainable params: 104,480
2025-10-04 16:30:02,046 - CIFAR-100_Training - INFO - Non-trainable params: 0
2025-10-04 16:30:02,046 - CIFAR-100_Training - INFO - ----------------------------------------------------------------
…
