…
2025-10-15 13:26:26,533 - ImageNet_Training - INFO - ======================================================================
2025-10-15 13:26:26,533 - ImageNet_Training - INFO - ==========================================================================================
2025-10-15 13:26:26,533 - ImageNet_Training - INFO - Layer (type:depth-idx)                   Output Shape              Param #
2025-10-15 13:26:26,533 - ImageNet_Training - INFO - ==========================================================================================
2025-10-15 13:26:26,533 - ImageNet_Training - INFO - ├─Conv2d: 1-1                            [-1, 64, 112, 112]        9,408
2025-10-15 13:26:26,533 - ImageNet_Training - INFO - ├─BatchNorm2d: 1-2                       [-1, 64, 112, 112]        128
2025-10-15 13:26:26,533 - ImageNet_Training - INFO - ├─ReLU: 1-3                              [-1, 64, 112, 112]        --
2025-10-15 13:26:26,533 - ImageNet_Training - INFO - ├─MaxPool2d: 1-4                         [-1, 64, 56, 56]          --
2025-10-15 13:26:26,533 - ImageNet_Training - INFO - ├─Sequential: 1-5                        [-1, 256, 56, 56]         --
2025-10-15 13:26:26,533 - ImageNet_Training - INFO - |    └─BottleneckBlock: 2-1              [-1, 256, 56, 56]         --
2025-10-15 13:26:26,533 - ImageNet_Training - INFO - |    |    └─Conv2d: 3-1                  [-1, 64, 56, 56]          4,096
2025-10-15 13:26:26,533 - ImageNet_Training - INFO - |    |    └─BatchNorm2d: 3-2             [-1, 64, 56, 56]          128
2025-10-15 13:26:26,533 - ImageNet_Training - INFO - |    |    └─ReLU: 3-3                    [-1, 64, 56, 56]          --
2025-10-15 13:26:26,533 - ImageNet_Training - INFO - |    |    └─Conv2d: 3-4                  [-1, 64, 56, 56]          36,864
2025-10-15 13:26:26,533 - ImageNet_Training - INFO - |    |    └─BatchNorm2d: 3-5             [-1, 64, 56, 56]          128
2025-10-15 13:26:26,533 - ImageNet_Training - INFO - |    |    └─ReLU: 3-6                    [-1, 64, 56, 56]          --
2025-10-15 13:26:26,533 - ImageNet_Training - INFO - |    |    └─Conv2d: 3-7                  [-1, 256, 56, 56]         16,384
2025-10-15 13:26:26,533 - ImageNet_Training - INFO - |    |    └─BatchNorm2d: 3-8             [-1, 256, 56, 56]         512
2025-10-15 13:26:26,533 - ImageNet_Training - INFO - |    |    └─Sequential: 3-9              [-1, 256, 56, 56]         16,896
2025-10-15 13:26:26,533 - ImageNet_Training - INFO - |    |    └─ReLU: 3-10                   [-1, 256, 56, 56]         --
2025-10-15 13:26:26,533 - ImageNet_Training - INFO - |    └─BottleneckBlock: 2-2              [-1, 256, 56, 56]         --
2025-10-15 13:26:26,534 - ImageNet_Training - INFO - |    |    └─Conv2d: 3-11                 [-1, 64, 56, 56]          16,384
2025-10-15 13:26:26,534 - ImageNet_Training - INFO - |    |    └─BatchNorm2d: 3-12            [-1, 64, 56, 56]          128
2025-10-15 13:26:26,534 - ImageNet_Training - INFO - |    |    └─ReLU: 3-13                   [-1, 64, 56, 56]          --
2025-10-15 13:26:26,534 - ImageNet_Training - INFO - |    |    └─Conv2d: 3-14                 [-1, 64, 56, 56]          36,864
2025-10-15 13:26:26,534 - ImageNet_Training - INFO - |    |    └─BatchNorm2d: 3-15            [-1, 64, 56, 56]          128
2025-10-15 13:26:26,534 - ImageNet_Training - INFO - |    |    └─ReLU: 3-16                   [-1, 64, 56, 56]          --
2025-10-15 13:26:26,534 - ImageNet_Training - INFO - |    |    └─Conv2d: 3-17                 [-1, 256, 56, 56]         16,384
2025-10-15 13:26:26,534 - ImageNet_Training - INFO - |    |    └─BatchNorm2d: 3-18            [-1, 256, 56, 56]         512
2025-10-15 13:26:26,534 - ImageNet_Training - INFO - |    |    └─ReLU: 3-19                   [-1, 256, 56, 56]         --
2025-10-15 13:26:26,534 - ImageNet_Training - INFO - |    └─BottleneckBlock: 2-3              [-1, 256, 56, 56]         --
2025-10-15 13:26:26,534 - ImageNet_Training - INFO - |    |    └─Conv2d: 3-20                 [-1, 64, 56, 56]          16,384
2025-10-15 13:26:26,534 - ImageNet_Training - INFO - |    |    └─BatchNorm2d: 3-21            [-1, 64, 56, 56]          128
2025-10-15 13:26:26,534 - ImageNet_Training - INFO - |    |    └─ReLU: 3-22                   [-1, 64, 56, 56]          --
2025-10-15 13:26:26,534 - ImageNet_Training - INFO - |    |    └─Conv2d: 3-23                 [-1, 64, 56, 56]          36,864
2025-10-15 13:26:26,534 - ImageNet_Training - INFO - |    |    └─BatchNorm2d: 3-24            [-1, 64, 56, 56]          128
2025-10-15 13:26:26,534 - ImageNet_Training - INFO - |    |    └─ReLU: 3-25                   [-1, 64, 56, 56]          --
2025-10-15 13:26:26,534 - ImageNet_Training - INFO - |    |    └─Conv2d: 3-26                 [-1, 256, 56, 56]         16,384
2025-10-15 13:26:26,534 - ImageNet_Training - INFO - |    |    └─BatchNorm2d: 3-27            [-1, 256, 56, 56]         512
2025-10-15 13:26:26,534 - ImageNet_Training - INFO - |    |    └─ReLU: 3-28                   [-1, 256, 56, 56]         --
2025-10-15 13:26:26,534 - ImageNet_Training - INFO - ├─Sequential: 1-6                        [-1, 512, 28, 28]         --
2025-10-15 13:26:26,534 - ImageNet_Training - INFO - |    └─BottleneckBlock: 2-4              [-1, 512, 28, 28]         --
2025-10-15 13:26:26,534 - ImageNet_Training - INFO - |    |    └─Conv2d: 3-29                 [-1, 128, 56, 56]         32,768
2025-10-15 13:26:26,534 - ImageNet_Training - INFO - |    |    └─BatchNorm2d: 3-30            [-1, 128, 56, 56]         256
2025-10-15 13:26:26,534 - ImageNet_Training - INFO - |    |    └─ReLU: 3-31                   [-1, 128, 56, 56]         --
2025-10-15 13:26:26,534 - ImageNet_Training - INFO - |    |    └─Conv2d: 3-32                 [-1, 128, 28, 28]         147,456
2025-10-15 13:26:26,534 - ImageNet_Training - INFO - |    |    └─BatchNorm2d: 3-33            [-1, 128, 28, 28]         256
2025-10-15 13:26:26,534 - ImageNet_Training - INFO - |    |    └─ReLU: 3-34                   [-1, 128, 28, 28]         --
2025-10-15 13:26:26,534 - ImageNet_Training - INFO - |    |    └─Conv2d: 3-35                 [-1, 512, 28, 28]         65,536
2025-10-15 13:26:26,534 - ImageNet_Training - INFO - |    |    └─BatchNorm2d: 3-36            [-1, 512, 28, 28]         1,024
2025-10-15 13:26:26,534 - ImageNet_Training - INFO - |    |    └─Sequential: 3-37             [-1, 512, 28, 28]         132,096
2025-10-15 13:26:26,534 - ImageNet_Training - INFO - |    |    └─ReLU: 3-38                   [-1, 512, 28, 28]         --
2025-10-15 13:26:26,535 - ImageNet_Training - INFO - |    └─BottleneckBlock: 2-5              [-1, 512, 28, 28]         --
2025-10-15 13:26:26,535 - ImageNet_Training - INFO - |    |    └─Conv2d: 3-39                 [-1, 128, 28, 28]         65,536
2025-10-15 13:26:26,535 - ImageNet_Training - INFO - |    |    └─BatchNorm2d: 3-40            [-1, 128, 28, 28]         256
2025-10-15 13:26:26,535 - ImageNet_Training - INFO - |    |    └─ReLU: 3-41                   [-1, 128, 28, 28]         --
2025-10-15 13:26:26,535 - ImageNet_Training - INFO - |    |    └─Conv2d: 3-42                 [-1, 128, 28, 28]         147,456
2025-10-15 13:26:26,535 - ImageNet_Training - INFO - |    |    └─BatchNorm2d: 3-43            [-1, 128, 28, 28]         256
2025-10-15 13:26:26,535 - ImageNet_Training - INFO - |    |    └─ReLU: 3-44                   [-1, 128, 28, 28]         --
2025-10-15 13:26:26,535 - ImageNet_Training - INFO - |    |    └─Conv2d: 3-45                 [-1, 512, 28, 28]         65,536
2025-10-15 13:26:26,535 - ImageNet_Training - INFO - |    |    └─BatchNorm2d: 3-46            [-1, 512, 28, 28]         1,024
2025-10-15 13:26:26,535 - ImageNet_Training - INFO - |    |    └─ReLU: 3-47                   [-1, 512, 28, 28]         --
2025-10-15 13:26:26,535 - ImageNet_Training - INFO - |    └─BottleneckBlock: 2-6              [-1, 512, 28, 28]         --
2025-10-15 13:26:26,535 - ImageNet_Training - INFO - |    |    └─Conv2d: 3-48                 [-1, 128, 28, 28]         65,536
2025-10-15 13:26:26,535 - ImageNet_Training - INFO - |    |    └─BatchNorm2d: 3-49            [-1, 128, 28, 28]         256
2025-10-15 13:26:26,535 - ImageNet_Training - INFO - |    |    └─ReLU: 3-50                   [-1, 128, 28, 28]         --
2025-10-15 13:26:26,535 - ImageNet_Training - INFO - |    |    └─Conv2d: 3-51                 [-1, 128, 28, 28]         147,456
2025-10-15 13:26:26,535 - ImageNet_Training - INFO - |    |    └─BatchNorm2d: 3-52            [-1, 128, 28, 28]         256
2025-10-15 13:26:26,535 - ImageNet_Training - INFO - |    |    └─ReLU: 3-53                   [-1, 128, 28, 28]         --
2025-10-15 13:26:26,535 - ImageNet_Training - INFO - |    |    └─Conv2d: 3-54                 [-1, 512, 28, 28]         65,536
2025-10-15 13:26:26,535 - ImageNet_Training - INFO - |    |    └─BatchNorm2d: 3-55            [-1, 512, 28, 28]         1,024
2025-10-15 13:26:26,535 - ImageNet_Training - INFO - |    |    └─ReLU: 3-56                   [-1, 512, 28, 28]         --
2025-10-15 13:26:26,535 - ImageNet_Training - INFO - |    └─BottleneckBlock: 2-7              [-1, 512, 28, 28]         --
2025-10-15 13:26:26,535 - ImageNet_Training - INFO - |    |    └─Conv2d: 3-57                 [-1, 128, 28, 28]         65,536
2025-10-15 13:26:26,535 - ImageNet_Training - INFO - |    |    └─BatchNorm2d: 3-58            [-1, 128, 28, 28]         256
2025-10-15 13:26:26,535 - ImageNet_Training - INFO - |    |    └─ReLU: 3-59                   [-1, 128, 28, 28]         --
2025-10-15 13:26:26,535 - ImageNet_Training - INFO - |    |    └─Conv2d: 3-60                 [-1, 128, 28, 28]         147,456
2025-10-15 13:26:26,535 - ImageNet_Training - INFO - |    |    └─BatchNorm2d: 3-61            [-1, 128, 28, 28]         256
2025-10-15 13:26:26,535 - ImageNet_Training - INFO - |    |    └─ReLU: 3-62                   [-1, 128, 28, 28]         --
2025-10-15 13:26:26,535 - ImageNet_Training - INFO - |    |    └─Conv2d: 3-63                 [-1, 512, 28, 28]         65,536
2025-10-15 13:26:26,535 - ImageNet_Training - INFO - |    |    └─BatchNorm2d: 3-64            [-1, 512, 28, 28]         1,024
2025-10-15 13:26:26,535 - ImageNet_Training - INFO - |    |    └─ReLU: 3-65                   [-1, 512, 28, 28]         --
2025-10-15 13:26:26,535 - ImageNet_Training - INFO - ├─Sequential: 1-7                        [-1, 1024, 14, 14]        --
2025-10-15 13:26:26,535 - ImageNet_Training - INFO - |    └─BottleneckBlock: 2-8              [-1, 1024, 14, 14]        --
2025-10-15 13:26:26,536 - ImageNet_Training - INFO - |    |    └─Conv2d: 3-66                 [-1, 256, 28, 28]         131,072
2025-10-15 13:26:26,536 - ImageNet_Training - INFO - |    |    └─BatchNorm2d: 3-67            [-1, 256, 28, 28]         512
2025-10-15 13:26:26,536 - ImageNet_Training - INFO - |    |    └─ReLU: 3-68                   [-1, 256, 28, 28]         --
2025-10-15 13:26:26,536 - ImageNet_Training - INFO - |    |    └─Conv2d: 3-69                 [-1, 256, 14, 14]         589,824
2025-10-15 13:26:26,536 - ImageNet_Training - INFO - |    |    └─BatchNorm2d: 3-70            [-1, 256, 14, 14]         512
2025-10-15 13:26:26,536 - ImageNet_Training - INFO - |    |    └─ReLU: 3-71                   [-1, 256, 14, 14]         --
2025-10-15 13:26:26,536 - ImageNet_Training - INFO - |    |    └─Conv2d: 3-72                 [-1, 1024, 14, 14]        262,144
2025-10-15 13:26:26,536 - ImageNet_Training - INFO - |    |    └─BatchNorm2d: 3-73            [-1, 1024, 14, 14]        2,048
2025-10-15 13:26:26,536 - ImageNet_Training - INFO - |    |    └─Sequential: 3-74             [-1, 1024, 14, 14]        526,336
2025-10-15 13:26:26,536 - ImageNet_Training - INFO - |    |    └─ReLU: 3-75                   [-1, 1024, 14, 14]        --
2025-10-15 13:26:26,536 - ImageNet_Training - INFO - |    └─BottleneckBlock: 2-9              [-1, 1024, 14, 14]        --
2025-10-15 13:26:26,536 - ImageNet_Training - INFO - |    |    └─Conv2d: 3-76                 [-1, 256, 14, 14]         262,144
2025-10-15 13:26:26,536 - ImageNet_Training - INFO - |    |    └─BatchNorm2d: 3-77            [-1, 256, 14, 14]         512
2025-10-15 13:26:26,536 - ImageNet_Training - INFO - |    |    └─ReLU: 3-78                   [-1, 256, 14, 14]         --
2025-10-15 13:26:26,536 - ImageNet_Training - INFO - |    |    └─Conv2d: 3-79                 [-1, 256, 14, 14]         589,824
2025-10-15 13:26:26,536 - ImageNet_Training - INFO - |    |    └─BatchNorm2d: 3-80            [-1, 256, 14, 14]         512
2025-10-15 13:26:26,536 - ImageNet_Training - INFO - |    |    └─ReLU: 3-81                   [-1, 256, 14, 14]         --
2025-10-15 13:26:26,536 - ImageNet_Training - INFO - |    |    └─Conv2d: 3-82                 [-1, 1024, 14, 14]        262,144
2025-10-15 13:26:26,536 - ImageNet_Training - INFO - |    |    └─BatchNorm2d: 3-83            [-1, 1024, 14, 14]        2,048
2025-10-15 13:26:26,536 - ImageNet_Training - INFO - |    |    └─ReLU: 3-84                   [-1, 1024, 14, 14]        --
2025-10-15 13:26:26,536 - ImageNet_Training - INFO - |    └─BottleneckBlock: 2-10             [-1, 1024, 14, 14]        --
2025-10-15 13:26:26,536 - ImageNet_Training - INFO - |    |    └─Conv2d: 3-85                 [-1, 256, 14, 14]         262,144
2025-10-15 13:26:26,536 - ImageNet_Training - INFO - |    |    └─BatchNorm2d: 3-86            [-1, 256, 14, 14]         512
2025-10-15 13:26:26,536 - ImageNet_Training - INFO - |    |    └─ReLU: 3-87                   [-1, 256, 14, 14]         --
2025-10-15 13:26:26,536 - ImageNet_Training - INFO - |    |    └─Conv2d: 3-88                 [-1, 256, 14, 14]         589,824
2025-10-15 13:26:26,536 - ImageNet_Training - INFO - |    |    └─BatchNorm2d: 3-89            [-1, 256, 14, 14]         512
2025-10-15 13:26:26,536 - ImageNet_Training - INFO - |    |    └─ReLU: 3-90                   [-1, 256, 14, 14]         --
2025-10-15 13:26:26,536 - ImageNet_Training - INFO - |    |    └─Conv2d: 3-91                 [-1, 1024, 14, 14]        262,144
2025-10-15 13:26:26,536 - ImageNet_Training - INFO - |    |    └─BatchNorm2d: 3-92            [-1, 1024, 14, 14]        2,048
2025-10-15 13:26:26,536 - ImageNet_Training - INFO - |    |    └─ReLU: 3-93                   [-1, 1024, 14, 14]        --
2025-10-15 13:26:26,536 - ImageNet_Training - INFO - |    └─BottleneckBlock: 2-11             [-1, 1024, 14, 14]        --
2025-10-15 13:26:26,536 - ImageNet_Training - INFO - |    |    └─Conv2d: 3-94                 [-1, 256, 14, 14]         262,144
2025-10-15 13:26:26,537 - ImageNet_Training - INFO - |    |    └─BatchNorm2d: 3-95            [-1, 256, 14, 14]         512
2025-10-15 13:26:26,537 - ImageNet_Training - INFO - |    |    └─ReLU: 3-96                   [-1, 256, 14, 14]         --
2025-10-15 13:26:26,537 - ImageNet_Training - INFO - |    |    └─Conv2d: 3-97                 [-1, 256, 14, 14]         589,824
2025-10-15 13:26:26,537 - ImageNet_Training - INFO - |    |    └─BatchNorm2d: 3-98            [-1, 256, 14, 14]         512
2025-10-15 13:26:26,537 - ImageNet_Training - INFO - |    |    └─ReLU: 3-99                   [-1, 256, 14, 14]         --
2025-10-15 13:26:26,537 - ImageNet_Training - INFO - |    |    └─Conv2d: 3-100                [-1, 1024, 14, 14]        262,144
2025-10-15 13:26:26,537 - ImageNet_Training - INFO - |    |    └─BatchNorm2d: 3-101           [-1, 1024, 14, 14]        2,048
2025-10-15 13:26:26,537 - ImageNet_Training - INFO - |    |    └─ReLU: 3-102                  [-1, 1024, 14, 14]        --
2025-10-15 13:26:26,537 - ImageNet_Training - INFO - |    └─BottleneckBlock: 2-12             [-1, 1024, 14, 14]        --
2025-10-15 13:26:26,537 - ImageNet_Training - INFO - |    |    └─Conv2d: 3-103                [-1, 256, 14, 14]         262,144
2025-10-15 13:26:26,537 - ImageNet_Training - INFO - |    |    └─BatchNorm2d: 3-104           [-1, 256, 14, 14]         512
2025-10-15 13:26:26,537 - ImageNet_Training - INFO - |    |    └─ReLU: 3-105                  [-1, 256, 14, 14]         --
2025-10-15 13:26:26,537 - ImageNet_Training - INFO - |    |    └─Conv2d: 3-106                [-1, 256, 14, 14]         589,824
2025-10-15 13:26:26,537 - ImageNet_Training - INFO - |    |    └─BatchNorm2d: 3-107           [-1, 256, 14, 14]         512
2025-10-15 13:26:26,537 - ImageNet_Training - INFO - |    |    └─ReLU: 3-108                  [-1, 256, 14, 14]         --
2025-10-15 13:26:26,537 - ImageNet_Training - INFO - |    |    └─Conv2d: 3-109                [-1, 1024, 14, 14]        262,144
2025-10-15 13:26:26,537 - ImageNet_Training - INFO - |    |    └─BatchNorm2d: 3-110           [-1, 1024, 14, 14]        2,048
2025-10-15 13:26:26,537 - ImageNet_Training - INFO - |    |    └─ReLU: 3-111                  [-1, 1024, 14, 14]        --
2025-10-15 13:26:26,537 - ImageNet_Training - INFO - |    └─BottleneckBlock: 2-13             [-1, 1024, 14, 14]        --
2025-10-15 13:26:26,537 - ImageNet_Training - INFO - |    |    └─Conv2d: 3-112                [-1, 256, 14, 14]         262,144
2025-10-15 13:26:26,537 - ImageNet_Training - INFO - |    |    └─BatchNorm2d: 3-113           [-1, 256, 14, 14]         512
2025-10-15 13:26:26,537 - ImageNet_Training - INFO - |    |    └─ReLU: 3-114                  [-1, 256, 14, 14]         --
2025-10-15 13:26:26,537 - ImageNet_Training - INFO - |    |    └─Conv2d: 3-115                [-1, 256, 14, 14]         589,824
2025-10-15 13:26:26,537 - ImageNet_Training - INFO - |    |    └─BatchNorm2d: 3-116           [-1, 256, 14, 14]         512
2025-10-15 13:26:26,537 - ImageNet_Training - INFO - |    |    └─ReLU: 3-117                  [-1, 256, 14, 14]         --
2025-10-15 13:26:26,537 - ImageNet_Training - INFO - |    |    └─Conv2d: 3-118                [-1, 1024, 14, 14]        262,144
2025-10-15 13:26:26,537 - ImageNet_Training - INFO - |    |    └─BatchNorm2d: 3-119           [-1, 1024, 14, 14]        2,048
2025-10-15 13:26:26,537 - ImageNet_Training - INFO - |    |    └─ReLU: 3-120                  [-1, 1024, 14, 14]        --
2025-10-15 13:26:26,537 - ImageNet_Training - INFO - ├─Sequential: 1-8                        [-1, 2048, 7, 7]          --
2025-10-15 13:26:26,537 - ImageNet_Training - INFO - |    └─BottleneckBlock: 2-14             [-1, 2048, 7, 7]          --
2025-10-15 13:26:26,537 - ImageNet_Training - INFO - |    |    └─Conv2d: 3-121                [-1, 512, 14, 14]         524,288
2025-10-15 13:26:26,538 - ImageNet_Training - INFO - |    |    └─BatchNorm2d: 3-122           [-1, 512, 14, 14]         1,024
2025-10-15 13:26:26,538 - ImageNet_Training - INFO - |    |    └─ReLU: 3-123                  [-1, 512, 14, 14]         --
2025-10-15 13:26:26,538 - ImageNet_Training - INFO - |    |    └─Conv2d: 3-124                [-1, 512, 7, 7]           2,359,296
2025-10-15 13:26:26,538 - ImageNet_Training - INFO - |    |    └─BatchNorm2d: 3-125           [-1, 512, 7, 7]           1,024
2025-10-15 13:26:26,538 - ImageNet_Training - INFO - |    |    └─ReLU: 3-126                  [-1, 512, 7, 7]           --
2025-10-15 13:26:26,538 - ImageNet_Training - INFO - |    |    └─Conv2d: 3-127                [-1, 2048, 7, 7]          1,048,576
2025-10-15 13:26:26,538 - ImageNet_Training - INFO - |    |    └─BatchNorm2d: 3-128           [-1, 2048, 7, 7]          4,096
2025-10-15 13:26:26,538 - ImageNet_Training - INFO - |    |    └─Sequential: 3-129            [-1, 2048, 7, 7]          2,101,248
2025-10-15 13:26:26,538 - ImageNet_Training - INFO - |    |    └─ReLU: 3-130                  [-1, 2048, 7, 7]          --
2025-10-15 13:26:26,538 - ImageNet_Training - INFO - |    └─BottleneckBlock: 2-15             [-1, 2048, 7, 7]          --
2025-10-15 13:26:26,538 - ImageNet_Training - INFO - |    |    └─Conv2d: 3-131                [-1, 512, 7, 7]           1,048,576
2025-10-15 13:26:26,538 - ImageNet_Training - INFO - |    |    └─BatchNorm2d: 3-132           [-1, 512, 7, 7]           1,024
2025-10-15 13:26:26,538 - ImageNet_Training - INFO - |    |    └─ReLU: 3-133                  [-1, 512, 7, 7]           --
2025-10-15 13:26:26,538 - ImageNet_Training - INFO - |    |    └─Conv2d: 3-134                [-1, 512, 7, 7]           2,359,296
2025-10-15 13:26:26,538 - ImageNet_Training - INFO - |    |    └─BatchNorm2d: 3-135           [-1, 512, 7, 7]           1,024
2025-10-15 13:26:26,538 - ImageNet_Training - INFO - |    |    └─ReLU: 3-136                  [-1, 512, 7, 7]           --
2025-10-15 13:26:26,538 - ImageNet_Training - INFO - |    |    └─Conv2d: 3-137                [-1, 2048, 7, 7]          1,048,576
2025-10-15 13:26:26,538 - ImageNet_Training - INFO - |    |    └─BatchNorm2d: 3-138           [-1, 2048, 7, 7]          4,096
2025-10-15 13:26:26,538 - ImageNet_Training - INFO - |    |    └─ReLU: 3-139                  [-1, 2048, 7, 7]          --
2025-10-15 13:26:26,538 - ImageNet_Training - INFO - |    └─BottleneckBlock: 2-16             [-1, 2048, 7, 7]          --
2025-10-15 13:26:26,538 - ImageNet_Training - INFO - |    |    └─Conv2d: 3-140                [-1, 512, 7, 7]           1,048,576
2025-10-15 13:26:26,538 - ImageNet_Training - INFO - |    |    └─BatchNorm2d: 3-141           [-1, 512, 7, 7]           1,024
2025-10-15 13:26:26,538 - ImageNet_Training - INFO - |    |    └─ReLU: 3-142                  [-1, 512, 7, 7]           --
2025-10-15 13:26:26,538 - ImageNet_Training - INFO - |    |    └─Conv2d: 3-143                [-1, 512, 7, 7]           2,359,296
2025-10-15 13:26:26,538 - ImageNet_Training - INFO - |    |    └─BatchNorm2d: 3-144           [-1, 512, 7, 7]           1,024
2025-10-15 13:26:26,538 - ImageNet_Training - INFO - |    |    └─ReLU: 3-145                  [-1, 512, 7, 7]           --
2025-10-15 13:26:26,538 - ImageNet_Training - INFO - |    |    └─Conv2d: 3-146                [-1, 2048, 7, 7]          1,048,576
2025-10-15 13:26:26,538 - ImageNet_Training - INFO - |    |    └─BatchNorm2d: 3-147           [-1, 2048, 7, 7]          4,096
2025-10-15 13:26:26,538 - ImageNet_Training - INFO - |    |    └─ReLU: 3-148                  [-1, 2048, 7, 7]          --
2025-10-15 13:26:26,538 - ImageNet_Training - INFO - ├─AdaptiveAvgPool2d: 1-9                 [-1, 2048, 1, 1]          --
2025-10-15 13:26:26,538 - ImageNet_Training - INFO - ├─Dropout: 1-10                          [-1, 2048]                --
2025-10-15 13:26:26,539 - ImageNet_Training - INFO - ├─Linear: 1-11                           [-1, 1000]                2,049,000
2025-10-15 13:26:26,539 - ImageNet_Training - INFO - ==========================================================================================
2025-10-15 13:26:26,539 - ImageNet_Training - INFO - Total params: 25,557,032
2025-10-15 13:26:26,539 - ImageNet_Training - INFO - Trainable params: 25,557,032
2025-10-15 13:26:26,539 - ImageNet_Training - INFO - Non-trainable params: 0
2025-10-15 13:26:26,539 - ImageNet_Training - INFO - Total mult-adds (G): 4.14
…
