…
2025-09-27 07:38:54,664 - MNIST_Training - INFO - DETAILED MODEL ARCHITECTURE SUMMARY
2025-09-27 07:38:54,665 - MNIST_Training - INFO - ==================================================
2025-09-27 07:38:54,665 - MNIST_Training - INFO - ----------------------------------------------------------------
2025-09-27 07:38:54,669 - MNIST_Training - INFO -         Layer (type)               Output Shape         Param #
2025-09-27 07:38:54,672 - MNIST_Training - INFO - ================================================================
2025-09-27 07:38:54,673 - MNIST_Training - INFO -             Conv2d-1           [-1, 12, 28, 28]             108
2025-09-27 07:38:54,674 - MNIST_Training - INFO -        BatchNorm2d-2           [-1, 12, 28, 28]              24
2025-09-27 07:38:54,680 - MNIST_Training - INFO -               ReLU-3           [-1, 12, 28, 28]               0
2025-09-27 07:38:54,683 - MNIST_Training - INFO -             Conv2d-4           [-1, 12, 28, 28]           1,296
2025-09-27 07:38:54,684 - MNIST_Training - INFO -        BatchNorm2d-5           [-1, 12, 28, 28]              24
2025-09-27 07:38:54,685 - MNIST_Training - INFO -               ReLU-6           [-1, 12, 28, 28]               0
2025-09-27 07:38:54,686 - MNIST_Training - INFO -            Dropout-7           [-1, 12, 28, 28]               0
2025-09-27 07:38:54,687 - MNIST_Training - INFO -             Conv2d-8           [-1, 12, 28, 28]           1,296
2025-09-27 07:38:54,689 - MNIST_Training - INFO -        BatchNorm2d-9           [-1, 12, 28, 28]              24
2025-09-27 07:38:54,695 - MNIST_Training - INFO -              ReLU-10           [-1, 12, 28, 28]               0
2025-09-27 07:38:54,699 - MNIST_Training - INFO -           Dropout-11           [-1, 12, 28, 28]               0
2025-09-27 07:38:54,700 - MNIST_Training - INFO -         MaxPool2d-12           [-1, 12, 14, 14]               0
2025-09-27 07:38:54,701 - MNIST_Training - INFO -            Conv2d-13           [-1, 10, 14, 14]           1,080
2025-09-27 07:38:54,705 - MNIST_Training - INFO -       BatchNorm2d-14           [-1, 10, 14, 14]              20
2025-09-27 07:38:54,710 - MNIST_Training - INFO -              ReLU-15           [-1, 10, 14, 14]               0
2025-09-27 07:38:54,717 - MNIST_Training - INFO -           Dropout-16           [-1, 10, 14, 14]               0
2025-09-27 07:38:54,721 - MNIST_Training - INFO -            Conv2d-17           [-1, 10, 14, 14]             900
2025-09-27 07:38:54,722 - MNIST_Training - INFO -       BatchNorm2d-18           [-1, 10, 14, 14]              20
2025-09-27 07:38:54,726 - MNIST_Training - INFO -              ReLU-19           [-1, 10, 14, 14]               0
2025-09-27 07:38:54,729 - MNIST_Training - INFO -           Dropout-20           [-1, 10, 14, 14]               0
2025-09-27 07:38:54,737 - MNIST_Training - INFO -         MaxPool2d-21             [-1, 10, 7, 7]               0
2025-09-27 07:38:54,738 - MNIST_Training - INFO -            Conv2d-22             [-1, 16, 5, 5]           1,440
2025-09-27 07:38:54,739 - MNIST_Training - INFO -       BatchNorm2d-23             [-1, 16, 5, 5]              32
2025-09-27 07:38:54,743 - MNIST_Training - INFO -              ReLU-24             [-1, 16, 5, 5]               0
2025-09-27 07:38:54,748 - MNIST_Training - INFO -           Dropout-25             [-1, 16, 5, 5]               0
2025-09-27 07:38:54,755 - MNIST_Training - INFO -            Conv2d-26              [-1, 8, 3, 3]           1,152
2025-09-27 07:38:54,757 - MNIST_Training - INFO -       BatchNorm2d-27              [-1, 8, 3, 3]              16
2025-09-27 07:38:54,761 - MNIST_Training - INFO -              ReLU-28              [-1, 8, 3, 3]               0
2025-09-27 07:38:54,765 - MNIST_Training - INFO -           Dropout-29              [-1, 8, 3, 3]               0
2025-09-27 07:38:54,775 - MNIST_Training - INFO -         AvgPool2d-30              [-1, 8, 1, 1]               0
2025-09-27 07:38:54,779 - MNIST_Training - INFO -            Linear-31                   [-1, 28]             252
2025-09-27 07:38:54,783 - MNIST_Training - INFO -            Linear-32                   [-1, 10]             290
2025-09-27 07:38:54,785 - MNIST_Training - INFO - ================================================================
2025-09-27 07:38:54,794 - MNIST_Training - INFO - Total params: 7,974
2025-09-27 07:38:54,796 - MNIST_Training - INFO - Trainable params: 7,974
2025-09-27 07:38:54,799 - MNIST_Training - INFO - Non-trainable params: 0
2025-09-27 07:38:54,804 - MNIST_Training - INFO - ----------------------------------------------------------------
…
