…
2025-10-01 12:19:28,683 - CIFAR-10_Training - INFO - DETAILED MODEL ARCHITECTURE SUMMARY
2025-10-01 12:19:28,683 - CIFAR-10_Training - INFO - ==================================================
2025-10-01 12:19:28,684 - CIFAR-10_Training - INFO - ----------------------------------------------------------------
2025-10-01 12:19:28,684 - CIFAR-10_Training - INFO -         Layer (type)               Output Shape         Param #
2025-10-01 12:19:28,684 - CIFAR-10_Training - INFO - ================================================================
2025-10-01 12:19:28,684 - CIFAR-10_Training - INFO -             Conv2d-1           [-1, 16, 32, 32]             432
2025-10-01 12:19:28,684 - CIFAR-10_Training - INFO -        BatchNorm2d-2           [-1, 16, 32, 32]              32
2025-10-01 12:19:28,684 - CIFAR-10_Training - INFO -               ReLU-3           [-1, 16, 32, 32]               0
2025-10-01 12:19:28,684 - CIFAR-10_Training - INFO -          Dropout2d-4           [-1, 16, 32, 32]               0
2025-10-01 12:19:28,684 - CIFAR-10_Training - INFO -             Conv2d-5           [-1, 16, 32, 32]           2,304
2025-10-01 12:19:28,684 - CIFAR-10_Training - INFO -        BatchNorm2d-6           [-1, 16, 32, 32]              32
2025-10-01 12:19:28,684 - CIFAR-10_Training - INFO -               ReLU-7           [-1, 16, 32, 32]               0
2025-10-01 12:19:28,684 - CIFAR-10_Training - INFO -          Dropout2d-8           [-1, 16, 32, 32]               0
2025-10-01 12:19:28,684 - CIFAR-10_Training - INFO -             Conv2d-9           [-1, 16, 32, 32]           2,304
2025-10-01 12:19:28,684 - CIFAR-10_Training - INFO -       BatchNorm2d-10           [-1, 16, 32, 32]              32
2025-10-01 12:19:28,684 - CIFAR-10_Training - INFO -              ReLU-11           [-1, 16, 32, 32]               0
2025-10-01 12:19:28,684 - CIFAR-10_Training - INFO -         Dropout2d-12           [-1, 16, 32, 32]               0
2025-10-01 12:19:28,684 - CIFAR-10_Training - INFO -            Conv2d-13           [-1, 16, 32, 32]           2,304
2025-10-01 12:19:28,684 - CIFAR-10_Training - INFO -       BatchNorm2d-14           [-1, 16, 32, 32]              32
2025-10-01 12:19:28,684 - CIFAR-10_Training - INFO -              ReLU-15           [-1, 16, 32, 32]               0
2025-10-01 12:19:28,684 - CIFAR-10_Training - INFO -         Dropout2d-16           [-1, 16, 32, 32]               0
2025-10-01 12:19:28,684 - CIFAR-10_Training - INFO -            Conv2d-17           [-1, 16, 16, 16]           2,320
2025-10-01 12:19:28,684 - CIFAR-10_Training - INFO -       BatchNorm2d-18           [-1, 16, 16, 16]              32
2025-10-01 12:19:28,684 - CIFAR-10_Training - INFO -            Conv2d-19           [-1, 32, 16, 16]           4,608
2025-10-01 12:19:28,684 - CIFAR-10_Training - INFO -       BatchNorm2d-20           [-1, 32, 16, 16]              64
2025-10-01 12:19:28,684 - CIFAR-10_Training - INFO -              ReLU-21           [-1, 32, 16, 16]               0
2025-10-01 12:19:28,684 - CIFAR-10_Training - INFO -         Dropout2d-22           [-1, 32, 16, 16]               0
2025-10-01 12:19:28,684 - CIFAR-10_Training - INFO -            Conv2d-23           [-1, 32, 16, 16]           9,216
2025-10-01 12:19:28,684 - CIFAR-10_Training - INFO -       BatchNorm2d-24           [-1, 32, 16, 16]              64
2025-10-01 12:19:28,684 - CIFAR-10_Training - INFO -              ReLU-25           [-1, 32, 16, 16]               0
2025-10-01 12:19:28,684 - CIFAR-10_Training - INFO -         Dropout2d-26           [-1, 32, 16, 16]               0
2025-10-01 12:19:28,684 - CIFAR-10_Training - INFO -            Conv2d-27             [-1, 32, 8, 8]           9,248
2025-10-01 12:19:28,684 - CIFAR-10_Training - INFO -       BatchNorm2d-28             [-1, 32, 8, 8]              64
2025-10-01 12:19:28,684 - CIFAR-10_Training - INFO -            Conv2d-29             [-1, 32, 8, 8]             320
2025-10-01 12:19:28,684 - CIFAR-10_Training - INFO -            Conv2d-30             [-1, 64, 8, 8]           2,112
2025-10-01 12:19:28,684 - CIFAR-10_Training - INFO - depthwise_separable_conv-31             [-1, 64, 8, 8]               0
2025-10-01 12:19:28,684 - CIFAR-10_Training - INFO -       BatchNorm2d-32             [-1, 64, 8, 8]             128
2025-10-01 12:19:28,684 - CIFAR-10_Training - INFO -              ReLU-33             [-1, 64, 8, 8]               0
2025-10-01 12:19:28,684 - CIFAR-10_Training - INFO -         Dropout2d-34             [-1, 64, 8, 8]               0
2025-10-01 12:19:28,684 - CIFAR-10_Training - INFO -            Conv2d-35             [-1, 64, 8, 8]          36,864
2025-10-01 12:19:28,684 - CIFAR-10_Training - INFO -       BatchNorm2d-36             [-1, 64, 8, 8]             128
2025-10-01 12:19:28,684 - CIFAR-10_Training - INFO -              ReLU-37             [-1, 64, 8, 8]               0
2025-10-01 12:19:28,684 - CIFAR-10_Training - INFO -         Dropout2d-38             [-1, 64, 8, 8]               0
2025-10-01 12:19:28,684 - CIFAR-10_Training - INFO -            Conv2d-39             [-1, 64, 4, 4]          36,928
2025-10-01 12:19:28,684 - CIFAR-10_Training - INFO -       BatchNorm2d-40             [-1, 64, 4, 4]             128
2025-10-01 12:19:28,684 - CIFAR-10_Training - INFO -            Conv2d-41             [-1, 64, 4, 4]          36,864
2025-10-01 12:19:28,684 - CIFAR-10_Training - INFO -       BatchNorm2d-42             [-1, 64, 4, 4]             128
2025-10-01 12:19:28,684 - CIFAR-10_Training - INFO -              ReLU-43             [-1, 64, 4, 4]               0
2025-10-01 12:19:28,684 - CIFAR-10_Training - INFO -         Dropout2d-44             [-1, 64, 4, 4]               0
2025-10-01 12:19:28,684 - CIFAR-10_Training - INFO -            Conv2d-45             [-1, 64, 4, 4]          36,864
2025-10-01 12:19:28,684 - CIFAR-10_Training - INFO -       BatchNorm2d-46             [-1, 64, 4, 4]             128
2025-10-01 12:19:28,689 - CIFAR-10_Training - INFO -              ReLU-47             [-1, 64, 4, 4]               0
2025-10-01 12:19:28,689 - CIFAR-10_Training - INFO -         Dropout2d-48             [-1, 64, 4, 4]               0
2025-10-01 12:19:28,689 - CIFAR-10_Training - INFO -            Conv2d-49            [-1, 128, 4, 4]           8,192
2025-10-01 12:19:28,689 - CIFAR-10_Training - INFO -       BatchNorm2d-50            [-1, 128, 4, 4]             256
2025-10-01 12:19:28,689 - CIFAR-10_Training - INFO -              ReLU-51            [-1, 128, 4, 4]               0
2025-10-01 12:19:28,689 - CIFAR-10_Training - INFO -         Dropout2d-52            [-1, 128, 4, 4]               0
2025-10-01 12:19:28,689 - CIFAR-10_Training - INFO -         AvgPool2d-53            [-1, 128, 1, 1]               0
2025-10-01 12:19:28,689 - CIFAR-10_Training - INFO -            Linear-54                  [-1, 100]          12,900
2025-10-01 12:19:28,689 - CIFAR-10_Training - INFO -            Linear-55                   [-1, 10]           1,010
2025-10-01 12:19:28,689 - CIFAR-10_Training - INFO - ================================================================
2025-10-01 12:19:28,689 - CIFAR-10_Training - INFO - Total params: 206,038
2025-10-01 12:19:28,689 - CIFAR-10_Training - INFO - Trainable params: 206,038
2025-10-01 12:19:28,689 - CIFAR-10_Training - INFO - Non-trainable params: 0
2025-10-01 12:19:28,689 - CIFAR-10_Training - INFO - ----------------------------------------------------------------
…
