…
2025-09-30 15:55:36,784 - CIFAR-10_Training - INFO - DETAILED MODEL ARCHITECTURE SUMMARY
2025-09-30 15:55:36,784 - CIFAR-10_Training - INFO - ==================================================
2025-09-30 15:55:36,784 - CIFAR-10_Training - INFO - ----------------------------------------------------------------
2025-09-30 15:55:36,784 - CIFAR-10_Training - INFO -         Layer (type)               Output Shape         Param #
2025-09-30 15:55:36,784 - CIFAR-10_Training - INFO - ================================================================
2025-09-30 15:55:36,784 - CIFAR-10_Training - INFO -             Conv2d-1            [-1, 8, 32, 32]             216
2025-09-30 15:55:36,784 - CIFAR-10_Training - INFO -        BatchNorm2d-2            [-1, 8, 32, 32]              16
2025-09-30 15:55:36,784 - CIFAR-10_Training - INFO -               ReLU-3            [-1, 8, 32, 32]               0
2025-09-30 15:55:36,784 - CIFAR-10_Training - INFO -          Dropout2d-4            [-1, 8, 32, 32]               0
2025-09-30 15:55:36,784 - CIFAR-10_Training - INFO -             Conv2d-5            [-1, 8, 32, 32]             576
2025-09-30 15:55:36,784 - CIFAR-10_Training - INFO -        BatchNorm2d-6            [-1, 8, 32, 32]              16
2025-09-30 15:55:36,784 - CIFAR-10_Training - INFO -               ReLU-7            [-1, 8, 32, 32]               0
2025-09-30 15:55:36,784 - CIFAR-10_Training - INFO -          Dropout2d-8            [-1, 8, 32, 32]               0
2025-09-30 15:55:36,784 - CIFAR-10_Training - INFO -             Conv2d-9            [-1, 8, 32, 32]             576
2025-09-30 15:55:36,784 - CIFAR-10_Training - INFO -       BatchNorm2d-10            [-1, 8, 32, 32]              16
2025-09-30 15:55:36,784 - CIFAR-10_Training - INFO -              ReLU-11            [-1, 8, 32, 32]               0
2025-09-30 15:55:36,784 - CIFAR-10_Training - INFO -         Dropout2d-12            [-1, 8, 32, 32]               0
2025-09-30 15:55:36,784 - CIFAR-10_Training - INFO -            Conv2d-13            [-1, 8, 32, 32]             576
2025-09-30 15:55:36,784 - CIFAR-10_Training - INFO -       BatchNorm2d-14            [-1, 8, 32, 32]              16
2025-09-30 15:55:36,784 - CIFAR-10_Training - INFO -              ReLU-15            [-1, 8, 32, 32]               0
2025-09-30 15:55:36,784 - CIFAR-10_Training - INFO -         Dropout2d-16            [-1, 8, 32, 32]               0
2025-09-30 15:55:36,784 - CIFAR-10_Training - INFO -         MaxPool2d-17            [-1, 8, 16, 16]               0
2025-09-30 15:55:36,784 - CIFAR-10_Training - INFO -            Conv2d-18           [-1, 32, 16, 16]           2,304
2025-09-30 15:55:36,784 - CIFAR-10_Training - INFO -       BatchNorm2d-19           [-1, 32, 16, 16]              64
2025-09-30 15:55:36,784 - CIFAR-10_Training - INFO -              ReLU-20           [-1, 32, 16, 16]               0
2025-09-30 15:55:36,784 - CIFAR-10_Training - INFO -         Dropout2d-21           [-1, 32, 16, 16]               0
2025-09-30 15:55:36,784 - CIFAR-10_Training - INFO -            Conv2d-22           [-1, 32, 16, 16]           9,216
2025-09-30 15:55:36,784 - CIFAR-10_Training - INFO -       BatchNorm2d-23           [-1, 32, 16, 16]              64
2025-09-30 15:55:36,784 - CIFAR-10_Training - INFO -              ReLU-24           [-1, 32, 16, 16]               0
2025-09-30 15:55:36,784 - CIFAR-10_Training - INFO -         Dropout2d-25           [-1, 32, 16, 16]               0
2025-09-30 15:55:36,784 - CIFAR-10_Training - INFO -            Conv2d-26           [-1, 32, 16, 16]           9,216
2025-09-30 15:55:36,784 - CIFAR-10_Training - INFO -       BatchNorm2d-27           [-1, 32, 16, 16]              64
2025-09-30 15:55:36,784 - CIFAR-10_Training - INFO -              ReLU-28           [-1, 32, 16, 16]               0
2025-09-30 15:55:36,784 - CIFAR-10_Training - INFO -         Dropout2d-29           [-1, 32, 16, 16]               0
2025-09-30 15:55:36,784 - CIFAR-10_Training - INFO -         MaxPool2d-30             [-1, 32, 8, 8]               0
2025-09-30 15:55:36,784 - CIFAR-10_Training - INFO -            Conv2d-31             [-1, 32, 8, 8]           9,216
2025-09-30 15:55:36,784 - CIFAR-10_Training - INFO -       BatchNorm2d-32             [-1, 32, 8, 8]              64
2025-09-30 15:55:36,784 - CIFAR-10_Training - INFO -              ReLU-33             [-1, 32, 8, 8]               0
2025-09-30 15:55:36,784 - CIFAR-10_Training - INFO -         Dropout2d-34             [-1, 32, 8, 8]               0
2025-09-30 15:55:36,784 - CIFAR-10_Training - INFO -            Conv2d-35             [-1, 32, 8, 8]           9,216
2025-09-30 15:55:36,784 - CIFAR-10_Training - INFO -       BatchNorm2d-36             [-1, 32, 8, 8]              64
2025-09-30 15:55:36,784 - CIFAR-10_Training - INFO -              ReLU-37             [-1, 32, 8, 8]               0
2025-09-30 15:55:36,784 - CIFAR-10_Training - INFO -         Dropout2d-38             [-1, 32, 8, 8]               0
2025-09-30 15:55:36,784 - CIFAR-10_Training - INFO -            Conv2d-39             [-1, 32, 8, 8]           9,216
2025-09-30 15:55:36,784 - CIFAR-10_Training - INFO -       BatchNorm2d-40             [-1, 32, 8, 8]              64
2025-09-30 15:55:36,784 - CIFAR-10_Training - INFO -              ReLU-41             [-1, 32, 8, 8]               0
2025-09-30 15:55:36,784 - CIFAR-10_Training - INFO -         Dropout2d-42             [-1, 32, 8, 8]               0
2025-09-30 15:55:36,784 - CIFAR-10_Training - INFO -         MaxPool2d-43             [-1, 32, 4, 4]               0
2025-09-30 15:55:36,784 - CIFAR-10_Training - INFO -            Conv2d-44             [-1, 64, 4, 4]          18,432
2025-09-30 15:55:36,793 - CIFAR-10_Training - INFO -       BatchNorm2d-45             [-1, 64, 4, 4]             128
2025-09-30 15:55:36,793 - CIFAR-10_Training - INFO -              ReLU-46             [-1, 64, 4, 4]               0
2025-09-30 15:55:36,793 - CIFAR-10_Training - INFO -         Dropout2d-47             [-1, 64, 4, 4]               0
2025-09-30 15:55:36,793 - CIFAR-10_Training - INFO -            Conv2d-48            [-1, 128, 4, 4]          73,728
2025-09-30 15:55:36,793 - CIFAR-10_Training - INFO -       BatchNorm2d-49            [-1, 128, 4, 4]             256
2025-09-30 15:55:36,793 - CIFAR-10_Training - INFO -              ReLU-50            [-1, 128, 4, 4]               0
2025-09-30 15:55:36,793 - CIFAR-10_Training - INFO -         Dropout2d-51            [-1, 128, 4, 4]               0
2025-09-30 15:55:36,793 - CIFAR-10_Training - INFO -            Conv2d-52             [-1, 64, 4, 4]          73,728
2025-09-30 15:55:36,793 - CIFAR-10_Training - INFO -       BatchNorm2d-53             [-1, 64, 4, 4]             128
2025-09-30 15:55:36,794 - CIFAR-10_Training - INFO -              ReLU-54             [-1, 64, 4, 4]               0
2025-09-30 15:55:36,794 - CIFAR-10_Training - INFO -         Dropout2d-55             [-1, 64, 4, 4]               0
2025-09-30 15:55:36,794 - CIFAR-10_Training - INFO -            Conv2d-56             [-1, 10, 4, 4]             640
2025-09-30 15:55:36,794 - CIFAR-10_Training - INFO -       BatchNorm2d-57             [-1, 10, 4, 4]              20
2025-09-30 15:55:36,794 - CIFAR-10_Training - INFO -              ReLU-58             [-1, 10, 4, 4]               0
2025-09-30 15:55:36,794 - CIFAR-10_Training - INFO -         Dropout2d-59             [-1, 10, 4, 4]               0
2025-09-30 15:55:36,794 - CIFAR-10_Training - INFO - AdaptiveAvgPool2d-60             [-1, 10, 1, 1]               0
2025-09-30 15:55:36,794 - CIFAR-10_Training - INFO - ================================================================
2025-09-30 15:55:36,794 - CIFAR-10_Training - INFO - Total params: 217,836
2025-09-30 15:55:36,794 - CIFAR-10_Training - INFO - Trainable params: 217,836
2025-09-30 15:55:36,794 - CIFAR-10_Training - INFO - Non-trainable params: 0
2025-09-30 15:55:36,795 - CIFAR-10_Training - INFO - ----------------------------------------------------------------
…
