…
2025-10-10 13:40:04,944 - CIFAR-100_Training - INFO - DETAILED MODEL ARCHITECTURE SUMMARY
2025-10-10 13:40:04,944 - CIFAR-100_Training - INFO - ==================================================
2025-10-10 13:40:04,944 - CIFAR-100_Training - INFO - ----------------------------------------------------------------
2025-10-10 13:40:04,944 - CIFAR-100_Training - INFO -         Layer (type)               Output Shape         Param #
2025-10-10 13:40:04,944 - CIFAR-100_Training - INFO - ================================================================
2025-10-10 13:40:04,944 - CIFAR-100_Training - INFO -             Conv2d-1           [-1, 64, 32, 32]           1,728
2025-10-10 13:40:04,944 - CIFAR-100_Training - INFO -        BatchNorm2d-2           [-1, 64, 32, 32]             128
2025-10-10 13:40:04,944 - CIFAR-100_Training - INFO -               ReLU-3           [-1, 64, 32, 32]               0
2025-10-10 13:40:04,944 - CIFAR-100_Training - INFO -             Conv2d-4           [-1, 16, 32, 32]           1,024
2025-10-10 13:40:04,944 - CIFAR-100_Training - INFO -        BatchNorm2d-5           [-1, 16, 32, 32]              32
2025-10-10 13:40:04,944 - CIFAR-100_Training - INFO -               ReLU-6           [-1, 16, 32, 32]               0
2025-10-10 13:40:04,944 - CIFAR-100_Training - INFO -             Conv2d-7           [-1, 16, 32, 32]           2,304
2025-10-10 13:40:04,944 - CIFAR-100_Training - INFO -        BatchNorm2d-8           [-1, 16, 32, 32]              32
2025-10-10 13:40:04,944 - CIFAR-100_Training - INFO -               ReLU-9           [-1, 16, 32, 32]               0
2025-10-10 13:40:04,944 - CIFAR-100_Training - INFO -            Conv2d-10           [-1, 64, 32, 32]           1,024
2025-10-10 13:40:04,944 - CIFAR-100_Training - INFO -       BatchNorm2d-11           [-1, 64, 32, 32]             128
2025-10-10 13:40:04,944 - CIFAR-100_Training - INFO -              ReLU-12           [-1, 64, 32, 32]               0
2025-10-10 13:40:04,944 - CIFAR-100_Training - INFO -   BottleneckBlock-13           [-1, 64, 32, 32]               0
2025-10-10 13:40:04,944 - CIFAR-100_Training - INFO -            Conv2d-14           [-1, 16, 32, 32]           1,024
2025-10-10 13:40:04,944 - CIFAR-100_Training - INFO -       BatchNorm2d-15           [-1, 16, 32, 32]              32
2025-10-10 13:40:04,944 - CIFAR-100_Training - INFO -              ReLU-16           [-1, 16, 32, 32]               0
2025-10-10 13:40:04,944 - CIFAR-100_Training - INFO -            Conv2d-17           [-1, 16, 32, 32]           2,304
2025-10-10 13:40:04,944 - CIFAR-100_Training - INFO -       BatchNorm2d-18           [-1, 16, 32, 32]              32
2025-10-10 13:40:04,944 - CIFAR-100_Training - INFO -              ReLU-19           [-1, 16, 32, 32]               0
2025-10-10 13:40:04,944 - CIFAR-100_Training - INFO -            Conv2d-20           [-1, 64, 32, 32]           1,024
2025-10-10 13:40:04,944 - CIFAR-100_Training - INFO -       BatchNorm2d-21           [-1, 64, 32, 32]             128
2025-10-10 13:40:04,944 - CIFAR-100_Training - INFO -              ReLU-22           [-1, 64, 32, 32]               0
2025-10-10 13:40:04,944 - CIFAR-100_Training - INFO -   BottleneckBlock-23           [-1, 64, 32, 32]               0
2025-10-10 13:40:04,944 - CIFAR-100_Training - INFO -            Conv2d-24           [-1, 32, 32, 32]           2,048
2025-10-10 13:40:04,944 - CIFAR-100_Training - INFO -       BatchNorm2d-25           [-1, 32, 32, 32]              64
2025-10-10 13:40:04,944 - CIFAR-100_Training - INFO -              ReLU-26           [-1, 32, 32, 32]               0
2025-10-10 13:40:04,944 - CIFAR-100_Training - INFO -            Conv2d-27           [-1, 32, 16, 16]           9,216
2025-10-10 13:40:04,944 - CIFAR-100_Training - INFO -       BatchNorm2d-28           [-1, 32, 16, 16]              64
2025-10-10 13:40:04,944 - CIFAR-100_Training - INFO -              ReLU-29           [-1, 32, 16, 16]               0
2025-10-10 13:40:04,944 - CIFAR-100_Training - INFO -            Conv2d-30          [-1, 128, 16, 16]           4,096
2025-10-10 13:40:04,944 - CIFAR-100_Training - INFO -       BatchNorm2d-31          [-1, 128, 16, 16]             256
2025-10-10 13:40:04,944 - CIFAR-100_Training - INFO -            Conv2d-32          [-1, 128, 16, 16]           8,192
2025-10-10 13:40:04,944 - CIFAR-100_Training - INFO -       BatchNorm2d-33          [-1, 128, 16, 16]             256
2025-10-10 13:40:04,944 - CIFAR-100_Training - INFO -              ReLU-34          [-1, 128, 16, 16]               0
2025-10-10 13:40:04,944 - CIFAR-100_Training - INFO -   BottleneckBlock-35          [-1, 128, 16, 16]               0
2025-10-10 13:40:04,944 - CIFAR-100_Training - INFO -            Conv2d-36           [-1, 32, 16, 16]           4,096
2025-10-10 13:40:04,944 - CIFAR-100_Training - INFO -       BatchNorm2d-37           [-1, 32, 16, 16]              64
2025-10-10 13:40:04,944 - CIFAR-100_Training - INFO -              ReLU-38           [-1, 32, 16, 16]               0
2025-10-10 13:40:04,944 - CIFAR-100_Training - INFO -            Conv2d-39           [-1, 32, 16, 16]           9,216
2025-10-10 13:40:04,944 - CIFAR-100_Training - INFO -       BatchNorm2d-40           [-1, 32, 16, 16]              64
2025-10-10 13:40:04,944 - CIFAR-100_Training - INFO -              ReLU-41           [-1, 32, 16, 16]               0
2025-10-10 13:40:04,944 - CIFAR-100_Training - INFO -            Conv2d-42          [-1, 128, 16, 16]           4,096
2025-10-10 13:40:04,944 - CIFAR-100_Training - INFO -       BatchNorm2d-43          [-1, 128, 16, 16]             256
2025-10-10 13:40:04,944 - CIFAR-100_Training - INFO -              ReLU-44          [-1, 128, 16, 16]               0
2025-10-10 13:40:04,944 - CIFAR-100_Training - INFO -   BottleneckBlock-45          [-1, 128, 16, 16]               0
2025-10-10 13:40:04,944 - CIFAR-100_Training - INFO -            Conv2d-46           [-1, 64, 16, 16]           8,192
2025-10-10 13:40:04,944 - CIFAR-100_Training - INFO -       BatchNorm2d-47           [-1, 64, 16, 16]             128
2025-10-10 13:40:04,944 - CIFAR-100_Training - INFO -              ReLU-48           [-1, 64, 16, 16]               0
2025-10-10 13:40:04,944 - CIFAR-100_Training - INFO -            Conv2d-49             [-1, 64, 8, 8]          36,864
2025-10-10 13:40:04,944 - CIFAR-100_Training - INFO -       BatchNorm2d-50             [-1, 64, 8, 8]             128
2025-10-10 13:40:04,944 - CIFAR-100_Training - INFO -              ReLU-51             [-1, 64, 8, 8]               0
2025-10-10 13:40:04,944 - CIFAR-100_Training - INFO -            Conv2d-52            [-1, 256, 8, 8]          16,384
2025-10-10 13:40:04,944 - CIFAR-100_Training - INFO -       BatchNorm2d-53            [-1, 256, 8, 8]             512
2025-10-10 13:40:04,944 - CIFAR-100_Training - INFO -            Conv2d-54            [-1, 256, 8, 8]          32,768
2025-10-10 13:40:04,944 - CIFAR-100_Training - INFO -       BatchNorm2d-55            [-1, 256, 8, 8]             512
2025-10-10 13:40:04,944 - CIFAR-100_Training - INFO -              ReLU-56            [-1, 256, 8, 8]               0
2025-10-10 13:40:04,944 - CIFAR-100_Training - INFO -   BottleneckBlock-57            [-1, 256, 8, 8]               0
2025-10-10 13:40:04,950 - CIFAR-100_Training - INFO -            Conv2d-58             [-1, 64, 8, 8]          16,384
2025-10-10 13:40:04,950 - CIFAR-100_Training - INFO -       BatchNorm2d-59             [-1, 64, 8, 8]             128
2025-10-10 13:40:04,950 - CIFAR-100_Training - INFO -              ReLU-60             [-1, 64, 8, 8]               0
2025-10-10 13:40:04,950 - CIFAR-100_Training - INFO -            Conv2d-61             [-1, 64, 8, 8]          36,864
2025-10-10 13:40:04,950 - CIFAR-100_Training - INFO -       BatchNorm2d-62             [-1, 64, 8, 8]             128
2025-10-10 13:40:04,950 - CIFAR-100_Training - INFO -              ReLU-63             [-1, 64, 8, 8]               0
2025-10-10 13:40:04,950 - CIFAR-100_Training - INFO -            Conv2d-64            [-1, 256, 8, 8]          16,384
2025-10-10 13:40:04,950 - CIFAR-100_Training - INFO -       BatchNorm2d-65            [-1, 256, 8, 8]             512
2025-10-10 13:40:04,950 - CIFAR-100_Training - INFO -              ReLU-66            [-1, 256, 8, 8]               0
2025-10-10 13:40:04,950 - CIFAR-100_Training - INFO -   BottleneckBlock-67            [-1, 256, 8, 8]               0
2025-10-10 13:40:04,951 - CIFAR-100_Training - INFO -            Conv2d-68            [-1, 128, 8, 8]          32,768
2025-10-10 13:40:04,951 - CIFAR-100_Training - INFO -       BatchNorm2d-69            [-1, 128, 8, 8]             256
2025-10-10 13:40:04,951 - CIFAR-100_Training - INFO -              ReLU-70            [-1, 128, 8, 8]               0
2025-10-10 13:40:04,951 - CIFAR-100_Training - INFO -            Conv2d-71            [-1, 128, 4, 4]         147,456
2025-10-10 13:40:04,951 - CIFAR-100_Training - INFO -       BatchNorm2d-72            [-1, 128, 4, 4]             256
2025-10-10 13:40:04,951 - CIFAR-100_Training - INFO -              ReLU-73            [-1, 128, 4, 4]               0
2025-10-10 13:40:04,951 - CIFAR-100_Training - INFO -            Conv2d-74            [-1, 512, 4, 4]          65,536
2025-10-10 13:40:04,951 - CIFAR-100_Training - INFO -       BatchNorm2d-75            [-1, 512, 4, 4]           1,024
2025-10-10 13:40:04,951 - CIFAR-100_Training - INFO -            Conv2d-76            [-1, 512, 4, 4]         131,072
2025-10-10 13:40:04,951 - CIFAR-100_Training - INFO -       BatchNorm2d-77            [-1, 512, 4, 4]           1,024
2025-10-10 13:40:04,951 - CIFAR-100_Training - INFO -              ReLU-78            [-1, 512, 4, 4]               0
2025-10-10 13:40:04,951 - CIFAR-100_Training - INFO -   BottleneckBlock-79            [-1, 512, 4, 4]               0
2025-10-10 13:40:04,951 - CIFAR-100_Training - INFO -            Conv2d-80            [-1, 128, 4, 4]          65,536
2025-10-10 13:40:04,952 - CIFAR-100_Training - INFO -       BatchNorm2d-81            [-1, 128, 4, 4]             256
2025-10-10 13:40:04,952 - CIFAR-100_Training - INFO -              ReLU-82            [-1, 128, 4, 4]               0
2025-10-10 13:40:04,952 - CIFAR-100_Training - INFO -            Conv2d-83            [-1, 128, 4, 4]         147,456
2025-10-10 13:40:04,952 - CIFAR-100_Training - INFO -       BatchNorm2d-84            [-1, 128, 4, 4]             256
2025-10-10 13:40:04,952 - CIFAR-100_Training - INFO -              ReLU-85            [-1, 128, 4, 4]               0
2025-10-10 13:40:04,952 - CIFAR-100_Training - INFO -            Conv2d-86            [-1, 512, 4, 4]          65,536
2025-10-10 13:40:04,952 - CIFAR-100_Training - INFO -       BatchNorm2d-87            [-1, 512, 4, 4]           1,024
2025-10-10 13:40:04,952 - CIFAR-100_Training - INFO -              ReLU-88            [-1, 512, 4, 4]               0
2025-10-10 13:40:04,952 - CIFAR-100_Training - INFO -   BottleneckBlock-89            [-1, 512, 4, 4]               0
2025-10-10 13:40:04,952 - CIFAR-100_Training - INFO - AdaptiveAvgPool2d-90            [-1, 512, 1, 1]               0
2025-10-10 13:40:04,952 - CIFAR-100_Training - INFO -            Linear-91                  [-1, 100]          51,300
2025-10-10 13:40:04,952 - CIFAR-100_Training - INFO - ================================================================
2025-10-10 13:40:04,952 - CIFAR-100_Training - INFO - Total params: 929,572
2025-10-10 13:40:04,953 - CIFAR-100_Training - INFO - Trainable params: 929,572
2025-10-10 13:40:04,953 - CIFAR-100_Training - INFO - Non-trainable params: 0
2025-10-10 13:40:04,953 - CIFAR-100_Training - INFO - ----------------------------------------------------------------
…
