…
2025-10-11 09:03:28,210 - CIFAR-100_Training - INFO - ----------------------------------------------------------------
INFO:CIFAR-100_Training:----------------------------------------------------------------
2025-10-11 09:03:28,212 - CIFAR-100_Training - INFO -         Layer (type)               Output Shape         Param #
INFO:CIFAR-100_Training:        Layer (type)               Output Shape         Param #
2025-10-11 09:03:28,213 - CIFAR-100_Training - INFO - ================================================================
INFO:CIFAR-100_Training:================================================================
2025-10-11 09:03:28,214 - CIFAR-100_Training - INFO -             Conv2d-1           [-1, 64, 32, 32]           1,728
INFO:CIFAR-100_Training:            Conv2d-1           [-1, 64, 32, 32]           1,728
2025-10-11 09:03:28,216 - CIFAR-100_Training - INFO -        BatchNorm2d-2           [-1, 64, 32, 32]             128
INFO:CIFAR-100_Training:       BatchNorm2d-2           [-1, 64, 32, 32]             128
2025-10-11 09:03:28,217 - CIFAR-100_Training - INFO -               ReLU-3           [-1, 64, 32, 32]               0
INFO:CIFAR-100_Training:              ReLU-3           [-1, 64, 32, 32]               0
2025-10-11 09:03:28,219 - CIFAR-100_Training - INFO -             Conv2d-4           [-1, 64, 32, 32]          36,864
INFO:CIFAR-100_Training:            Conv2d-4           [-1, 64, 32, 32]          36,864
2025-10-11 09:03:28,220 - CIFAR-100_Training - INFO -        BatchNorm2d-5           [-1, 64, 32, 32]             128
INFO:CIFAR-100_Training:       BatchNorm2d-5           [-1, 64, 32, 32]             128
2025-10-11 09:03:28,221 - CIFAR-100_Training - INFO -               ReLU-6           [-1, 64, 32, 32]               0
INFO:CIFAR-100_Training:              ReLU-6           [-1, 64, 32, 32]               0
2025-10-11 09:03:28,222 - CIFAR-100_Training - INFO -             Conv2d-7           [-1, 64, 32, 32]          36,864
INFO:CIFAR-100_Training:            Conv2d-7           [-1, 64, 32, 32]          36,864
2025-10-11 09:03:28,223 - CIFAR-100_Training - INFO -        BatchNorm2d-8           [-1, 64, 32, 32]             128
INFO:CIFAR-100_Training:       BatchNorm2d-8           [-1, 64, 32, 32]             128
2025-10-11 09:03:28,225 - CIFAR-100_Training - INFO -               ReLU-9           [-1, 64, 32, 32]               0
INFO:CIFAR-100_Training:              ReLU-9           [-1, 64, 32, 32]               0
2025-10-11 09:03:28,226 - CIFAR-100_Training - INFO -        BasicBlock-10           [-1, 64, 32, 32]               0
INFO:CIFAR-100_Training:       BasicBlock-10           [-1, 64, 32, 32]               0
2025-10-11 09:03:28,227 - CIFAR-100_Training - INFO -            Conv2d-11           [-1, 64, 32, 32]          36,864
INFO:CIFAR-100_Training:           Conv2d-11           [-1, 64, 32, 32]          36,864
2025-10-11 09:03:28,229 - CIFAR-100_Training - INFO -       BatchNorm2d-12           [-1, 64, 32, 32]             128
INFO:CIFAR-100_Training:      BatchNorm2d-12           [-1, 64, 32, 32]             128
2025-10-11 09:03:28,230 - CIFAR-100_Training - INFO -              ReLU-13           [-1, 64, 32, 32]               0
INFO:CIFAR-100_Training:             ReLU-13           [-1, 64, 32, 32]               0
2025-10-11 09:03:28,233 - CIFAR-100_Training - INFO -            Conv2d-14           [-1, 64, 32, 32]          36,864
INFO:CIFAR-100_Training:           Conv2d-14           [-1, 64, 32, 32]          36,864
2025-10-11 09:03:28,234 - CIFAR-100_Training - INFO -       BatchNorm2d-15           [-1, 64, 32, 32]             128
INFO:CIFAR-100_Training:      BatchNorm2d-15           [-1, 64, 32, 32]             128
2025-10-11 09:03:28,235 - CIFAR-100_Training - INFO -              ReLU-16           [-1, 64, 32, 32]               0
INFO:CIFAR-100_Training:             ReLU-16           [-1, 64, 32, 32]               0
2025-10-11 09:03:28,238 - CIFAR-100_Training - INFO -        BasicBlock-17           [-1, 64, 32, 32]               0
INFO:CIFAR-100_Training:       BasicBlock-17           [-1, 64, 32, 32]               0
2025-10-11 09:03:28,239 - CIFAR-100_Training - INFO -            Conv2d-18           [-1, 64, 32, 32]          36,864
INFO:CIFAR-100_Training:           Conv2d-18           [-1, 64, 32, 32]          36,864
2025-10-11 09:03:28,240 - CIFAR-100_Training - INFO -       BatchNorm2d-19           [-1, 64, 32, 32]             128
INFO:CIFAR-100_Training:      BatchNorm2d-19           [-1, 64, 32, 32]             128
2025-10-11 09:03:28,241 - CIFAR-100_Training - INFO -              ReLU-20           [-1, 64, 32, 32]               0
INFO:CIFAR-100_Training:             ReLU-20           [-1, 64, 32, 32]               0
2025-10-11 09:03:28,242 - CIFAR-100_Training - INFO -            Conv2d-21           [-1, 64, 32, 32]          36,864
INFO:CIFAR-100_Training:           Conv2d-21           [-1, 64, 32, 32]          36,864
2025-10-11 09:03:28,244 - CIFAR-100_Training - INFO -       BatchNorm2d-22           [-1, 64, 32, 32]             128
INFO:CIFAR-100_Training:      BatchNorm2d-22           [-1, 64, 32, 32]             128
2025-10-11 09:03:28,246 - CIFAR-100_Training - INFO -              ReLU-23           [-1, 64, 32, 32]               0
INFO:CIFAR-100_Training:             ReLU-23           [-1, 64, 32, 32]               0
2025-10-11 09:03:28,248 - CIFAR-100_Training - INFO -        BasicBlock-24           [-1, 64, 32, 32]               0
INFO:CIFAR-100_Training:       BasicBlock-24           [-1, 64, 32, 32]               0
2025-10-11 09:03:28,249 - CIFAR-100_Training - INFO -            Conv2d-25          [-1, 128, 16, 16]          73,728
INFO:CIFAR-100_Training:           Conv2d-25          [-1, 128, 16, 16]          73,728
2025-10-11 09:03:28,250 - CIFAR-100_Training - INFO -       BatchNorm2d-26          [-1, 128, 16, 16]             256
INFO:CIFAR-100_Training:      BatchNorm2d-26          [-1, 128, 16, 16]             256
2025-10-11 09:03:28,253 - CIFAR-100_Training - INFO -              ReLU-27          [-1, 128, 16, 16]               0
INFO:CIFAR-100_Training:             ReLU-27          [-1, 128, 16, 16]               0
2025-10-11 09:03:28,255 - CIFAR-100_Training - INFO -            Conv2d-28          [-1, 128, 16, 16]         147,456
INFO:CIFAR-100_Training:           Conv2d-28          [-1, 128, 16, 16]         147,456
2025-10-11 09:03:28,256 - CIFAR-100_Training - INFO -       BatchNorm2d-29          [-1, 128, 16, 16]             256
INFO:CIFAR-100_Training:      BatchNorm2d-29          [-1, 128, 16, 16]             256
2025-10-11 09:03:28,257 - CIFAR-100_Training - INFO -            Conv2d-30          [-1, 128, 16, 16]           8,192
INFO:CIFAR-100_Training:           Conv2d-30          [-1, 128, 16, 16]           8,192
2025-10-11 09:03:28,259 - CIFAR-100_Training - INFO -       BatchNorm2d-31          [-1, 128, 16, 16]             256
INFO:CIFAR-100_Training:      BatchNorm2d-31          [-1, 128, 16, 16]             256
2025-10-11 09:03:28,261 - CIFAR-100_Training - INFO -              ReLU-32          [-1, 128, 16, 16]               0
INFO:CIFAR-100_Training:             ReLU-32          [-1, 128, 16, 16]               0
2025-10-11 09:03:28,264 - CIFAR-100_Training - INFO -        BasicBlock-33          [-1, 128, 16, 16]               0
INFO:CIFAR-100_Training:       BasicBlock-33          [-1, 128, 16, 16]               0
2025-10-11 09:03:28,265 - CIFAR-100_Training - INFO -            Conv2d-34          [-1, 128, 16, 16]         147,456
INFO:CIFAR-100_Training:           Conv2d-34          [-1, 128, 16, 16]         147,456
2025-10-11 09:03:28,266 - CIFAR-100_Training - INFO -       BatchNorm2d-35          [-1, 128, 16, 16]             256
INFO:CIFAR-100_Training:      BatchNorm2d-35          [-1, 128, 16, 16]             256
2025-10-11 09:03:28,267 - CIFAR-100_Training - INFO -              ReLU-36          [-1, 128, 16, 16]               0
INFO:CIFAR-100_Training:             ReLU-36          [-1, 128, 16, 16]               0
2025-10-11 09:03:28,268 - CIFAR-100_Training - INFO -            Conv2d-37          [-1, 128, 16, 16]         147,456
INFO:CIFAR-100_Training:           Conv2d-37          [-1, 128, 16, 16]         147,456
2025-10-11 09:03:28,269 - CIFAR-100_Training - INFO -       BatchNorm2d-38          [-1, 128, 16, 16]             256
INFO:CIFAR-100_Training:      BatchNorm2d-38          [-1, 128, 16, 16]             256
2025-10-11 09:03:28,273 - CIFAR-100_Training - INFO -              ReLU-39          [-1, 128, 16, 16]               0
INFO:CIFAR-100_Training:             ReLU-39          [-1, 128, 16, 16]               0
2025-10-11 09:03:28,274 - CIFAR-100_Training - INFO -        BasicBlock-40          [-1, 128, 16, 16]               0
INFO:CIFAR-100_Training:       BasicBlock-40          [-1, 128, 16, 16]               0
2025-10-11 09:03:28,276 - CIFAR-100_Training - INFO -            Conv2d-41          [-1, 128, 16, 16]         147,456
INFO:CIFAR-100_Training:           Conv2d-41          [-1, 128, 16, 16]         147,456
2025-10-11 09:03:28,277 - CIFAR-100_Training - INFO -       BatchNorm2d-42          [-1, 128, 16, 16]             256
INFO:CIFAR-100_Training:      BatchNorm2d-42          [-1, 128, 16, 16]             256
2025-10-11 09:03:28,278 - CIFAR-100_Training - INFO -              ReLU-43          [-1, 128, 16, 16]               0
INFO:CIFAR-100_Training:             ReLU-43          [-1, 128, 16, 16]               0
2025-10-11 09:03:28,279 - CIFAR-100_Training - INFO -            Conv2d-44          [-1, 128, 16, 16]         147,456
INFO:CIFAR-100_Training:           Conv2d-44          [-1, 128, 16, 16]         147,456
2025-10-11 09:03:28,280 - CIFAR-100_Training - INFO -       BatchNorm2d-45          [-1, 128, 16, 16]             256
INFO:CIFAR-100_Training:      BatchNorm2d-45          [-1, 128, 16, 16]             256
2025-10-11 09:03:28,281 - CIFAR-100_Training - INFO -              ReLU-46          [-1, 128, 16, 16]               0
INFO:CIFAR-100_Training:             ReLU-46          [-1, 128, 16, 16]               0
2025-10-11 09:03:28,282 - CIFAR-100_Training - INFO -        BasicBlock-47          [-1, 128, 16, 16]               0
INFO:CIFAR-100_Training:       BasicBlock-47          [-1, 128, 16, 16]               0
2025-10-11 09:03:28,283 - CIFAR-100_Training - INFO -            Conv2d-48          [-1, 128, 16, 16]         147,456
INFO:CIFAR-100_Training:           Conv2d-48          [-1, 128, 16, 16]         147,456
2025-10-11 09:03:28,284 - CIFAR-100_Training - INFO -       BatchNorm2d-49          [-1, 128, 16, 16]             256
INFO:CIFAR-100_Training:      BatchNorm2d-49          [-1, 128, 16, 16]             256
2025-10-11 09:03:28,285 - CIFAR-100_Training - INFO -              ReLU-50          [-1, 128, 16, 16]               0
INFO:CIFAR-100_Training:             ReLU-50          [-1, 128, 16, 16]               0
2025-10-11 09:03:28,287 - CIFAR-100_Training - INFO -            Conv2d-51          [-1, 128, 16, 16]         147,456
INFO:CIFAR-100_Training:           Conv2d-51          [-1, 128, 16, 16]         147,456
2025-10-11 09:03:28,288 - CIFAR-100_Training - INFO -       BatchNorm2d-52          [-1, 128, 16, 16]             256
INFO:CIFAR-100_Training:      BatchNorm2d-52          [-1, 128, 16, 16]             256
2025-10-11 09:03:28,289 - CIFAR-100_Training - INFO -              ReLU-53          [-1, 128, 16, 16]               0
INFO:CIFAR-100_Training:             ReLU-53          [-1, 128, 16, 16]               0
2025-10-11 09:03:28,290 - CIFAR-100_Training - INFO -        BasicBlock-54          [-1, 128, 16, 16]               0
INFO:CIFAR-100_Training:       BasicBlock-54          [-1, 128, 16, 16]               0
2025-10-11 09:03:28,292 - CIFAR-100_Training - INFO -            Conv2d-55            [-1, 256, 8, 8]         294,912
INFO:CIFAR-100_Training:           Conv2d-55            [-1, 256, 8, 8]         294,912
2025-10-11 09:03:28,293 - CIFAR-100_Training - INFO -       BatchNorm2d-56            [-1, 256, 8, 8]             512
INFO:CIFAR-100_Training:      BatchNorm2d-56            [-1, 256, 8, 8]             512
2025-10-11 09:03:28,294 - CIFAR-100_Training - INFO -              ReLU-57            [-1, 256, 8, 8]               0
INFO:CIFAR-100_Training:             ReLU-57            [-1, 256, 8, 8]               0
2025-10-11 09:03:28,295 - CIFAR-100_Training - INFO -            Conv2d-58            [-1, 256, 8, 8]         589,824
INFO:CIFAR-100_Training:           Conv2d-58            [-1, 256, 8, 8]         589,824
2025-10-11 09:03:28,297 - CIFAR-100_Training - INFO -       BatchNorm2d-59            [-1, 256, 8, 8]             512
INFO:CIFAR-100_Training:      BatchNorm2d-59            [-1, 256, 8, 8]             512
2025-10-11 09:03:28,298 - CIFAR-100_Training - INFO -            Conv2d-60            [-1, 256, 8, 8]          32,768
INFO:CIFAR-100_Training:           Conv2d-60            [-1, 256, 8, 8]          32,768
2025-10-11 09:03:28,299 - CIFAR-100_Training - INFO -       BatchNorm2d-61            [-1, 256, 8, 8]             512
INFO:CIFAR-100_Training:      BatchNorm2d-61            [-1, 256, 8, 8]             512
2025-10-11 09:03:28,300 - CIFAR-100_Training - INFO -              ReLU-62            [-1, 256, 8, 8]               0
INFO:CIFAR-100_Training:             ReLU-62            [-1, 256, 8, 8]               0
2025-10-11 09:03:28,301 - CIFAR-100_Training - INFO -        BasicBlock-63            [-1, 256, 8, 8]               0
INFO:CIFAR-100_Training:       BasicBlock-63            [-1, 256, 8, 8]               0
2025-10-11 09:03:28,302 - CIFAR-100_Training - INFO -            Conv2d-64            [-1, 256, 8, 8]         589,824
INFO:CIFAR-100_Training:           Conv2d-64            [-1, 256, 8, 8]         589,824
2025-10-11 09:03:28,303 - CIFAR-100_Training - INFO -       BatchNorm2d-65            [-1, 256, 8, 8]             512
INFO:CIFAR-100_Training:      BatchNorm2d-65            [-1, 256, 8, 8]             512
2025-10-11 09:03:28,305 - CIFAR-100_Training - INFO -              ReLU-66            [-1, 256, 8, 8]               0
INFO:CIFAR-100_Training:             ReLU-66            [-1, 256, 8, 8]               0
2025-10-11 09:03:28,306 - CIFAR-100_Training - INFO -            Conv2d-67            [-1, 256, 8, 8]         589,824
INFO:CIFAR-100_Training:           Conv2d-67            [-1, 256, 8, 8]         589,824
2025-10-11 09:03:28,307 - CIFAR-100_Training - INFO -       BatchNorm2d-68            [-1, 256, 8, 8]             512
INFO:CIFAR-100_Training:      BatchNorm2d-68            [-1, 256, 8, 8]             512
2025-10-11 09:03:28,308 - CIFAR-100_Training - INFO -              ReLU-69            [-1, 256, 8, 8]               0
INFO:CIFAR-100_Training:             ReLU-69            [-1, 256, 8, 8]               0
2025-10-11 09:03:28,309 - CIFAR-100_Training - INFO -        BasicBlock-70            [-1, 256, 8, 8]               0
INFO:CIFAR-100_Training:       BasicBlock-70            [-1, 256, 8, 8]               0
2025-10-11 09:03:28,310 - CIFAR-100_Training - INFO -            Conv2d-71            [-1, 256, 8, 8]         589,824
INFO:CIFAR-100_Training:           Conv2d-71            [-1, 256, 8, 8]         589,824
2025-10-11 09:03:28,311 - CIFAR-100_Training - INFO -       BatchNorm2d-72            [-1, 256, 8, 8]             512
INFO:CIFAR-100_Training:      BatchNorm2d-72            [-1, 256, 8, 8]             512
2025-10-11 09:03:28,313 - CIFAR-100_Training - INFO -              ReLU-73            [-1, 256, 8, 8]               0
INFO:CIFAR-100_Training:             ReLU-73            [-1, 256, 8, 8]               0
2025-10-11 09:03:28,314 - CIFAR-100_Training - INFO -            Conv2d-74            [-1, 256, 8, 8]         589,824
INFO:CIFAR-100_Training:           Conv2d-74            [-1, 256, 8, 8]         589,824
2025-10-11 09:03:28,315 - CIFAR-100_Training - INFO -       BatchNorm2d-75            [-1, 256, 8, 8]             512
INFO:CIFAR-100_Training:      BatchNorm2d-75            [-1, 256, 8, 8]             512
2025-10-11 09:03:28,316 - CIFAR-100_Training - INFO -              ReLU-76            [-1, 256, 8, 8]               0
INFO:CIFAR-100_Training:             ReLU-76            [-1, 256, 8, 8]               0
2025-10-11 09:03:28,317 - CIFAR-100_Training - INFO -        BasicBlock-77            [-1, 256, 8, 8]               0
INFO:CIFAR-100_Training:       BasicBlock-77            [-1, 256, 8, 8]               0
2025-10-11 09:03:28,319 - CIFAR-100_Training - INFO -            Conv2d-78            [-1, 256, 8, 8]         589,824
INFO:CIFAR-100_Training:           Conv2d-78            [-1, 256, 8, 8]         589,824
2025-10-11 09:03:28,319 - CIFAR-100_Training - INFO -       BatchNorm2d-79            [-1, 256, 8, 8]             512
INFO:CIFAR-100_Training:      BatchNorm2d-79            [-1, 256, 8, 8]             512
2025-10-11 09:03:28,321 - CIFAR-100_Training - INFO -              ReLU-80            [-1, 256, 8, 8]               0
INFO:CIFAR-100_Training:             ReLU-80            [-1, 256, 8, 8]               0
2025-10-11 09:03:28,323 - CIFAR-100_Training - INFO -            Conv2d-81            [-1, 256, 8, 8]         589,824
INFO:CIFAR-100_Training:           Conv2d-81            [-1, 256, 8, 8]         589,824
2025-10-11 09:03:28,324 - CIFAR-100_Training - INFO -       BatchNorm2d-82            [-1, 256, 8, 8]             512
INFO:CIFAR-100_Training:      BatchNorm2d-82            [-1, 256, 8, 8]             512
2025-10-11 09:03:28,324 - CIFAR-100_Training - INFO -              ReLU-83            [-1, 256, 8, 8]               0
INFO:CIFAR-100_Training:             ReLU-83            [-1, 256, 8, 8]               0
2025-10-11 09:03:28,325 - CIFAR-100_Training - INFO -        BasicBlock-84            [-1, 256, 8, 8]               0
INFO:CIFAR-100_Training:       BasicBlock-84            [-1, 256, 8, 8]               0
2025-10-11 09:03:28,327 - CIFAR-100_Training - INFO -            Conv2d-85            [-1, 256, 8, 8]         589,824
INFO:CIFAR-100_Training:           Conv2d-85            [-1, 256, 8, 8]         589,824
2025-10-11 09:03:28,328 - CIFAR-100_Training - INFO -       BatchNorm2d-86            [-1, 256, 8, 8]             512
INFO:CIFAR-100_Training:      BatchNorm2d-86            [-1, 256, 8, 8]             512
2025-10-11 09:03:28,329 - CIFAR-100_Training - INFO -              ReLU-87            [-1, 256, 8, 8]               0
INFO:CIFAR-100_Training:             ReLU-87            [-1, 256, 8, 8]               0
2025-10-11 09:03:28,330 - CIFAR-100_Training - INFO -            Conv2d-88            [-1, 256, 8, 8]         589,824
INFO:CIFAR-100_Training:           Conv2d-88            [-1, 256, 8, 8]         589,824
2025-10-11 09:03:28,331 - CIFAR-100_Training - INFO -       BatchNorm2d-89            [-1, 256, 8, 8]             512
INFO:CIFAR-100_Training:      BatchNorm2d-89            [-1, 256, 8, 8]             512
2025-10-11 09:03:28,332 - CIFAR-100_Training - INFO -              ReLU-90            [-1, 256, 8, 8]               0
INFO:CIFAR-100_Training:             ReLU-90            [-1, 256, 8, 8]               0
2025-10-11 09:03:28,335 - CIFAR-100_Training - INFO -        BasicBlock-91            [-1, 256, 8, 8]               0
INFO:CIFAR-100_Training:       BasicBlock-91            [-1, 256, 8, 8]               0
2025-10-11 09:03:28,335 - CIFAR-100_Training - INFO -            Conv2d-92            [-1, 256, 8, 8]         589,824
INFO:CIFAR-100_Training:           Conv2d-92            [-1, 256, 8, 8]         589,824
2025-10-11 09:03:28,337 - CIFAR-100_Training - INFO -       BatchNorm2d-93            [-1, 256, 8, 8]             512
INFO:CIFAR-100_Training:      BatchNorm2d-93            [-1, 256, 8, 8]             512
2025-10-11 09:03:28,337 - CIFAR-100_Training - INFO -              ReLU-94            [-1, 256, 8, 8]               0
INFO:CIFAR-100_Training:             ReLU-94            [-1, 256, 8, 8]               0
2025-10-11 09:03:28,338 - CIFAR-100_Training - INFO -            Conv2d-95            [-1, 256, 8, 8]         589,824
INFO:CIFAR-100_Training:           Conv2d-95            [-1, 256, 8, 8]         589,824
2025-10-11 09:03:28,340 - CIFAR-100_Training - INFO -       BatchNorm2d-96            [-1, 256, 8, 8]             512
INFO:CIFAR-100_Training:      BatchNorm2d-96            [-1, 256, 8, 8]             512
2025-10-11 09:03:28,341 - CIFAR-100_Training - INFO -              ReLU-97            [-1, 256, 8, 8]               0
INFO:CIFAR-100_Training:             ReLU-97            [-1, 256, 8, 8]               0
2025-10-11 09:03:28,342 - CIFAR-100_Training - INFO -        BasicBlock-98            [-1, 256, 8, 8]               0
INFO:CIFAR-100_Training:       BasicBlock-98            [-1, 256, 8, 8]               0
2025-10-11 09:03:28,343 - CIFAR-100_Training - INFO -            Conv2d-99            [-1, 512, 4, 4]       1,179,648
INFO:CIFAR-100_Training:           Conv2d-99            [-1, 512, 4, 4]       1,179,648
2025-10-11 09:03:28,344 - CIFAR-100_Training - INFO -      BatchNorm2d-100            [-1, 512, 4, 4]           1,024
INFO:CIFAR-100_Training:     BatchNorm2d-100            [-1, 512, 4, 4]           1,024
2025-10-11 09:03:28,345 - CIFAR-100_Training - INFO -             ReLU-101            [-1, 512, 4, 4]               0
INFO:CIFAR-100_Training:            ReLU-101            [-1, 512, 4, 4]               0
2025-10-11 09:03:28,346 - CIFAR-100_Training - INFO -           Conv2d-102            [-1, 512, 4, 4]       2,359,296
INFO:CIFAR-100_Training:          Conv2d-102            [-1, 512, 4, 4]       2,359,296
2025-10-11 09:03:28,348 - CIFAR-100_Training - INFO -      BatchNorm2d-103            [-1, 512, 4, 4]           1,024
INFO:CIFAR-100_Training:     BatchNorm2d-103            [-1, 512, 4, 4]           1,024
2025-10-11 09:03:28,349 - CIFAR-100_Training - INFO -           Conv2d-104            [-1, 512, 4, 4]         131,072
INFO:CIFAR-100_Training:          Conv2d-104            [-1, 512, 4, 4]         131,072
2025-10-11 09:03:28,350 - CIFAR-100_Training - INFO -      BatchNorm2d-105            [-1, 512, 4, 4]           1,024
INFO:CIFAR-100_Training:     BatchNorm2d-105            [-1, 512, 4, 4]           1,024
2025-10-11 09:03:28,351 - CIFAR-100_Training - INFO -             ReLU-106            [-1, 512, 4, 4]               0
INFO:CIFAR-100_Training:            ReLU-106            [-1, 512, 4, 4]               0
2025-10-11 09:03:28,352 - CIFAR-100_Training - INFO -       BasicBlock-107            [-1, 512, 4, 4]               0
INFO:CIFAR-100_Training:      BasicBlock-107            [-1, 512, 4, 4]               0
2025-10-11 09:03:28,353 - CIFAR-100_Training - INFO -           Conv2d-108            [-1, 512, 4, 4]       2,359,296
INFO:CIFAR-100_Training:          Conv2d-108            [-1, 512, 4, 4]       2,359,296
2025-10-11 09:03:28,354 - CIFAR-100_Training - INFO -      BatchNorm2d-109            [-1, 512, 4, 4]           1,024
INFO:CIFAR-100_Training:     BatchNorm2d-109            [-1, 512, 4, 4]           1,024
2025-10-11 09:03:28,355 - CIFAR-100_Training - INFO -             ReLU-110            [-1, 512, 4, 4]               0
INFO:CIFAR-100_Training:            ReLU-110            [-1, 512, 4, 4]               0
2025-10-11 09:03:28,357 - CIFAR-100_Training - INFO -           Conv2d-111            [-1, 512, 4, 4]       2,359,296
INFO:CIFAR-100_Training:          Conv2d-111            [-1, 512, 4, 4]       2,359,296
2025-10-11 09:03:28,358 - CIFAR-100_Training - INFO -      BatchNorm2d-112            [-1, 512, 4, 4]           1,024
INFO:CIFAR-100_Training:     BatchNorm2d-112            [-1, 512, 4, 4]           1,024
2025-10-11 09:03:28,371 - CIFAR-100_Training - INFO -             ReLU-113            [-1, 512, 4, 4]               0
INFO:CIFAR-100_Training:            ReLU-113            [-1, 512, 4, 4]               0
2025-10-11 09:03:28,375 - CIFAR-100_Training - INFO -       BasicBlock-114            [-1, 512, 4, 4]               0
INFO:CIFAR-100_Training:      BasicBlock-114            [-1, 512, 4, 4]               0
2025-10-11 09:03:28,376 - CIFAR-100_Training - INFO -           Conv2d-115            [-1, 512, 4, 4]       2,359,296
INFO:CIFAR-100_Training:          Conv2d-115            [-1, 512, 4, 4]       2,359,296
2025-10-11 09:03:28,377 - CIFAR-100_Training - INFO -      BatchNorm2d-116            [-1, 512, 4, 4]           1,024
INFO:CIFAR-100_Training:     BatchNorm2d-116            [-1, 512, 4, 4]           1,024
2025-10-11 09:03:28,378 - CIFAR-100_Training - INFO -             ReLU-117            [-1, 512, 4, 4]               0
INFO:CIFAR-100_Training:            ReLU-117            [-1, 512, 4, 4]               0
2025-10-11 09:03:28,379 - CIFAR-100_Training - INFO -           Conv2d-118            [-1, 512, 4, 4]       2,359,296
INFO:CIFAR-100_Training:          Conv2d-118            [-1, 512, 4, 4]       2,359,296
2025-10-11 09:03:28,383 - CIFAR-100_Training - INFO -      BatchNorm2d-119            [-1, 512, 4, 4]           1,024
INFO:CIFAR-100_Training:     BatchNorm2d-119            [-1, 512, 4, 4]           1,024
2025-10-11 09:03:28,385 - CIFAR-100_Training - INFO -             ReLU-120            [-1, 512, 4, 4]               0
INFO:CIFAR-100_Training:            ReLU-120            [-1, 512, 4, 4]               0
2025-10-11 09:03:28,388 - CIFAR-100_Training - INFO -       BasicBlock-121            [-1, 512, 4, 4]               0
INFO:CIFAR-100_Training:      BasicBlock-121            [-1, 512, 4, 4]               0
2025-10-11 09:03:28,394 - CIFAR-100_Training - INFO - AdaptiveAvgPool2d-122            [-1, 512, 1, 1]               0
INFO:CIFAR-100_Training:AdaptiveAvgPool2d-122            [-1, 512, 1, 1]               0
2025-10-11 09:03:28,398 - CIFAR-100_Training - INFO -          Dropout-123                  [-1, 512]               0
INFO:CIFAR-100_Training:         Dropout-123                  [-1, 512]               0
2025-10-11 09:03:28,405 - CIFAR-100_Training - INFO -           Linear-124                  [-1, 100]          51,300
INFO:CIFAR-100_Training:          Linear-124                  [-1, 100]          51,300
2025-10-11 09:03:28,407 - CIFAR-100_Training - INFO - ================================================================
INFO:CIFAR-100_Training:================================================================
2025-10-11 09:03:28,410 - CIFAR-100_Training - INFO - Total params: 21,328,292
INFO:CIFAR-100_Training:Total params: 21,328,292
2025-10-11 09:03:28,412 - CIFAR-100_Training - INFO - Trainable params: 21,328,292
…
