…
2025-10-10 18:35:19,044 - CIFAR-100_Training - INFO - DETAILED MODEL ARCHITECTURE SUMMARY
2025-10-10 18:35:19,044 - CIFAR-100_Training - INFO - ==================================================
2025-10-10 18:35:19,044 - CIFAR-100_Training - INFO - ----------------------------------------------------------------
2025-10-10 18:35:19,044 - CIFAR-100_Training - INFO -         Layer (type)               Output Shape         Param #
2025-10-10 18:35:19,044 - CIFAR-100_Training - INFO - ================================================================
2025-10-10 18:35:19,045 - CIFAR-100_Training - INFO -             Conv2d-1           [-1, 64, 32, 32]           1,728
2025-10-10 18:35:19,045 - CIFAR-100_Training - INFO -        BatchNorm2d-2           [-1, 64, 32, 32]             128
2025-10-10 18:35:19,045 - CIFAR-100_Training - INFO -               ReLU-3           [-1, 64, 32, 32]               0
2025-10-10 18:35:19,046 - CIFAR-100_Training - INFO -             Conv2d-4           [-1, 64, 32, 32]          36,864
2025-10-10 18:35:19,046 - CIFAR-100_Training - INFO -        BatchNorm2d-5           [-1, 64, 32, 32]             128
2025-10-10 18:35:19,046 - CIFAR-100_Training - INFO -               ReLU-6           [-1, 64, 32, 32]               0
2025-10-10 18:35:19,046 - CIFAR-100_Training - INFO -             Conv2d-7           [-1, 64, 32, 32]          36,864
2025-10-10 18:35:19,046 - CIFAR-100_Training - INFO -        BatchNorm2d-8           [-1, 64, 32, 32]             128
2025-10-10 18:35:19,046 - CIFAR-100_Training - INFO -               ReLU-9           [-1, 64, 32, 32]               0
2025-10-10 18:35:19,046 - CIFAR-100_Training - INFO -         Dropout2d-10           [-1, 64, 32, 32]               0
2025-10-10 18:35:19,046 - CIFAR-100_Training - INFO -        BasicBlock-11           [-1, 64, 32, 32]               0
2025-10-10 18:35:19,046 - CIFAR-100_Training - INFO -            Conv2d-12           [-1, 64, 32, 32]          36,864
2025-10-10 18:35:19,046 - CIFAR-100_Training - INFO -       BatchNorm2d-13           [-1, 64, 32, 32]             128
2025-10-10 18:35:19,046 - CIFAR-100_Training - INFO -              ReLU-14           [-1, 64, 32, 32]               0
2025-10-10 18:35:19,046 - CIFAR-100_Training - INFO -            Conv2d-15           [-1, 64, 32, 32]          36,864
2025-10-10 18:35:19,046 - CIFAR-100_Training - INFO -       BatchNorm2d-16           [-1, 64, 32, 32]             128
2025-10-10 18:35:19,046 - CIFAR-100_Training - INFO -              ReLU-17           [-1, 64, 32, 32]               0
2025-10-10 18:35:19,047 - CIFAR-100_Training - INFO -         Dropout2d-18           [-1, 64, 32, 32]               0
2025-10-10 18:35:19,047 - CIFAR-100_Training - INFO -        BasicBlock-19           [-1, 64, 32, 32]               0
2025-10-10 18:35:19,047 - CIFAR-100_Training - INFO -            Conv2d-20           [-1, 64, 32, 32]          36,864
2025-10-10 18:35:19,047 - CIFAR-100_Training - INFO -       BatchNorm2d-21           [-1, 64, 32, 32]             128
2025-10-10 18:35:19,047 - CIFAR-100_Training - INFO -              ReLU-22           [-1, 64, 32, 32]               0
2025-10-10 18:35:19,047 - CIFAR-100_Training - INFO -            Conv2d-23           [-1, 64, 32, 32]          36,864
2025-10-10 18:35:19,047 - CIFAR-100_Training - INFO -       BatchNorm2d-24           [-1, 64, 32, 32]             128
2025-10-10 18:35:19,047 - CIFAR-100_Training - INFO -              ReLU-25           [-1, 64, 32, 32]               0
2025-10-10 18:35:19,047 - CIFAR-100_Training - INFO -         Dropout2d-26           [-1, 64, 32, 32]               0
2025-10-10 18:35:19,048 - CIFAR-100_Training - INFO -        BasicBlock-27           [-1, 64, 32, 32]               0
2025-10-10 18:35:19,048 - CIFAR-100_Training - INFO -            Conv2d-28          [-1, 128, 16, 16]          73,728
2025-10-10 18:35:19,048 - CIFAR-100_Training - INFO -       BatchNorm2d-29          [-1, 128, 16, 16]             256
2025-10-10 18:35:19,048 - CIFAR-100_Training - INFO -              ReLU-30          [-1, 128, 16, 16]               0
2025-10-10 18:35:19,048 - CIFAR-100_Training - INFO -            Conv2d-31          [-1, 128, 16, 16]         147,456
2025-10-10 18:35:19,048 - CIFAR-100_Training - INFO -       BatchNorm2d-32          [-1, 128, 16, 16]             256
2025-10-10 18:35:19,048 - CIFAR-100_Training - INFO -            Conv2d-33          [-1, 128, 16, 16]           8,192
2025-10-10 18:35:19,048 - CIFAR-100_Training - INFO -       BatchNorm2d-34          [-1, 128, 16, 16]             256
2025-10-10 18:35:19,048 - CIFAR-100_Training - INFO -              ReLU-35          [-1, 128, 16, 16]               0
2025-10-10 18:35:19,048 - CIFAR-100_Training - INFO -         Dropout2d-36          [-1, 128, 16, 16]               0
2025-10-10 18:35:19,048 - CIFAR-100_Training - INFO -        BasicBlock-37          [-1, 128, 16, 16]               0
2025-10-10 18:35:19,049 - CIFAR-100_Training - INFO -            Conv2d-38          [-1, 128, 16, 16]         147,456
2025-10-10 18:35:19,049 - CIFAR-100_Training - INFO -       BatchNorm2d-39          [-1, 128, 16, 16]             256
2025-10-10 18:35:19,049 - CIFAR-100_Training - INFO -              ReLU-40          [-1, 128, 16, 16]               0
2025-10-10 18:35:19,049 - CIFAR-100_Training - INFO -            Conv2d-41          [-1, 128, 16, 16]         147,456
2025-10-10 18:35:19,050 - CIFAR-100_Training - INFO -       BatchNorm2d-42          [-1, 128, 16, 16]             256
2025-10-10 18:35:19,050 - CIFAR-100_Training - INFO -              ReLU-43          [-1, 128, 16, 16]               0
2025-10-10 18:35:19,050 - CIFAR-100_Training - INFO -         Dropout2d-44          [-1, 128, 16, 16]               0
2025-10-10 18:35:19,050 - CIFAR-100_Training - INFO -        BasicBlock-45          [-1, 128, 16, 16]               0
2025-10-10 18:35:19,050 - CIFAR-100_Training - INFO -            Conv2d-46          [-1, 128, 16, 16]         147,456
2025-10-10 18:35:19,050 - CIFAR-100_Training - INFO -       BatchNorm2d-47          [-1, 128, 16, 16]             256
2025-10-10 18:35:19,050 - CIFAR-100_Training - INFO -              ReLU-48          [-1, 128, 16, 16]               0
2025-10-10 18:35:19,050 - CIFAR-100_Training - INFO -            Conv2d-49          [-1, 128, 16, 16]         147,456
2025-10-10 18:35:19,050 - CIFAR-100_Training - INFO -       BatchNorm2d-50          [-1, 128, 16, 16]             256
2025-10-10 18:35:19,050 - CIFAR-100_Training - INFO -              ReLU-51          [-1, 128, 16, 16]               0
2025-10-10 18:35:19,050 - CIFAR-100_Training - INFO -         Dropout2d-52          [-1, 128, 16, 16]               0
2025-10-10 18:35:19,050 - CIFAR-100_Training - INFO -        BasicBlock-53          [-1, 128, 16, 16]               0
2025-10-10 18:35:19,050 - CIFAR-100_Training - INFO -            Conv2d-54          [-1, 128, 16, 16]         147,456
2025-10-10 18:35:19,050 - CIFAR-100_Training - INFO -       BatchNorm2d-55          [-1, 128, 16, 16]             256
2025-10-10 18:35:19,051 - CIFAR-100_Training - INFO -              ReLU-56          [-1, 128, 16, 16]               0
2025-10-10 18:35:19,051 - CIFAR-100_Training - INFO -            Conv2d-57          [-1, 128, 16, 16]         147,456
2025-10-10 18:35:19,051 - CIFAR-100_Training - INFO -       BatchNorm2d-58          [-1, 128, 16, 16]             256
2025-10-10 18:35:19,051 - CIFAR-100_Training - INFO -              ReLU-59          [-1, 128, 16, 16]               0
2025-10-10 18:35:19,051 - CIFAR-100_Training - INFO -         Dropout2d-60          [-1, 128, 16, 16]               0
2025-10-10 18:35:19,051 - CIFAR-100_Training - INFO -        BasicBlock-61          [-1, 128, 16, 16]               0
2025-10-10 18:35:19,051 - CIFAR-100_Training - INFO -            Conv2d-62            [-1, 256, 8, 8]         294,912
2025-10-10 18:35:19,051 - CIFAR-100_Training - INFO -       BatchNorm2d-63            [-1, 256, 8, 8]             512
2025-10-10 18:35:19,051 - CIFAR-100_Training - INFO -              ReLU-64            [-1, 256, 8, 8]               0
2025-10-10 18:35:19,051 - CIFAR-100_Training - INFO -            Conv2d-65            [-1, 256, 8, 8]         589,824
2025-10-10 18:35:19,051 - CIFAR-100_Training - INFO -       BatchNorm2d-66            [-1, 256, 8, 8]             512
2025-10-10 18:35:19,051 - CIFAR-100_Training - INFO -            Conv2d-67            [-1, 256, 8, 8]          32,768
2025-10-10 18:35:19,052 - CIFAR-100_Training - INFO -       BatchNorm2d-68            [-1, 256, 8, 8]             512
2025-10-10 18:35:19,052 - CIFAR-100_Training - INFO -              ReLU-69            [-1, 256, 8, 8]               0
2025-10-10 18:35:19,052 - CIFAR-100_Training - INFO -         Dropout2d-70            [-1, 256, 8, 8]               0
2025-10-10 18:35:19,052 - CIFAR-100_Training - INFO -        BasicBlock-71            [-1, 256, 8, 8]               0
2025-10-10 18:35:19,052 - CIFAR-100_Training - INFO -            Conv2d-72            [-1, 256, 8, 8]         589,824
2025-10-10 18:35:19,052 - CIFAR-100_Training - INFO -       BatchNorm2d-73            [-1, 256, 8, 8]             512
2025-10-10 18:35:19,052 - CIFAR-100_Training - INFO -              ReLU-74            [-1, 256, 8, 8]               0
2025-10-10 18:35:19,052 - CIFAR-100_Training - INFO -            Conv2d-75            [-1, 256, 8, 8]         589,824
2025-10-10 18:35:19,053 - CIFAR-100_Training - INFO -       BatchNorm2d-76            [-1, 256, 8, 8]             512
2025-10-10 18:35:19,053 - CIFAR-100_Training - INFO -              ReLU-77            [-1, 256, 8, 8]               0
2025-10-10 18:35:19,053 - CIFAR-100_Training - INFO -         Dropout2d-78            [-1, 256, 8, 8]               0
2025-10-10 18:35:19,053 - CIFAR-100_Training - INFO -        BasicBlock-79            [-1, 256, 8, 8]               0
2025-10-10 18:35:19,053 - CIFAR-100_Training - INFO -            Conv2d-80            [-1, 256, 8, 8]         589,824
2025-10-10 18:35:19,053 - CIFAR-100_Training - INFO -       BatchNorm2d-81            [-1, 256, 8, 8]             512
2025-10-10 18:35:19,053 - CIFAR-100_Training - INFO -              ReLU-82            [-1, 256, 8, 8]               0
2025-10-10 18:35:19,054 - CIFAR-100_Training - INFO -            Conv2d-83            [-1, 256, 8, 8]         589,824
2025-10-10 18:35:19,054 - CIFAR-100_Training - INFO -       BatchNorm2d-84            [-1, 256, 8, 8]             512
2025-10-10 18:35:19,054 - CIFAR-100_Training - INFO -              ReLU-85            [-1, 256, 8, 8]               0
2025-10-10 18:35:19,054 - CIFAR-100_Training - INFO -         Dropout2d-86            [-1, 256, 8, 8]               0
2025-10-10 18:35:19,054 - CIFAR-100_Training - INFO -        BasicBlock-87            [-1, 256, 8, 8]               0
2025-10-10 18:35:19,054 - CIFAR-100_Training - INFO -            Conv2d-88            [-1, 256, 8, 8]         589,824
2025-10-10 18:35:19,054 - CIFAR-100_Training - INFO -       BatchNorm2d-89            [-1, 256, 8, 8]             512
2025-10-10 18:35:19,054 - CIFAR-100_Training - INFO -              ReLU-90            [-1, 256, 8, 8]               0
2025-10-10 18:35:19,054 - CIFAR-100_Training - INFO -            Conv2d-91            [-1, 256, 8, 8]         589,824
2025-10-10 18:35:19,055 - CIFAR-100_Training - INFO -       BatchNorm2d-92            [-1, 256, 8, 8]             512
2025-10-10 18:35:19,055 - CIFAR-100_Training - INFO -              ReLU-93            [-1, 256, 8, 8]               0
2025-10-10 18:35:19,055 - CIFAR-100_Training - INFO -         Dropout2d-94            [-1, 256, 8, 8]               0
2025-10-10 18:35:19,055 - CIFAR-100_Training - INFO -        BasicBlock-95            [-1, 256, 8, 8]               0
2025-10-10 18:35:19,055 - CIFAR-100_Training - INFO -            Conv2d-96            [-1, 256, 8, 8]         589,824
2025-10-10 18:35:19,055 - CIFAR-100_Training - INFO -       BatchNorm2d-97            [-1, 256, 8, 8]             512
2025-10-10 18:35:19,055 - CIFAR-100_Training - INFO -              ReLU-98            [-1, 256, 8, 8]               0
2025-10-10 18:35:19,055 - CIFAR-100_Training - INFO -            Conv2d-99            [-1, 256, 8, 8]         589,824
2025-10-10 18:35:19,055 - CIFAR-100_Training - INFO -      BatchNorm2d-100            [-1, 256, 8, 8]             512
2025-10-10 18:35:19,056 - CIFAR-100_Training - INFO -             ReLU-101            [-1, 256, 8, 8]               0
2025-10-10 18:35:19,056 - CIFAR-100_Training - INFO -        Dropout2d-102            [-1, 256, 8, 8]               0
2025-10-10 18:35:19,056 - CIFAR-100_Training - INFO -       BasicBlock-103            [-1, 256, 8, 8]               0
2025-10-10 18:35:19,056 - CIFAR-100_Training - INFO -           Conv2d-104            [-1, 256, 8, 8]         589,824
2025-10-10 18:35:19,056 - CIFAR-100_Training - INFO -      BatchNorm2d-105            [-1, 256, 8, 8]             512
2025-10-10 18:35:19,056 - CIFAR-100_Training - INFO -             ReLU-106            [-1, 256, 8, 8]               0
2025-10-10 18:35:19,056 - CIFAR-100_Training - INFO -           Conv2d-107            [-1, 256, 8, 8]         589,824
2025-10-10 18:35:19,056 - CIFAR-100_Training - INFO -      BatchNorm2d-108            [-1, 256, 8, 8]             512
2025-10-10 18:35:19,056 - CIFAR-100_Training - INFO -             ReLU-109            [-1, 256, 8, 8]               0
2025-10-10 18:35:19,056 - CIFAR-100_Training - INFO -        Dropout2d-110            [-1, 256, 8, 8]               0
2025-10-10 18:35:19,057 - CIFAR-100_Training - INFO -       BasicBlock-111            [-1, 256, 8, 8]               0
2025-10-10 18:35:19,057 - CIFAR-100_Training - INFO -           Conv2d-112            [-1, 512, 4, 4]       1,179,648
2025-10-10 18:35:19,057 - CIFAR-100_Training - INFO -      BatchNorm2d-113            [-1, 512, 4, 4]           1,024
2025-10-10 18:35:19,057 - CIFAR-100_Training - INFO -             ReLU-114            [-1, 512, 4, 4]               0
2025-10-10 18:35:19,057 - CIFAR-100_Training - INFO -           Conv2d-115            [-1, 512, 4, 4]       2,359,296
2025-10-10 18:35:19,057 - CIFAR-100_Training - INFO -      BatchNorm2d-116            [-1, 512, 4, 4]           1,024
2025-10-10 18:35:19,057 - CIFAR-100_Training - INFO -           Conv2d-117            [-1, 512, 4, 4]         131,072
2025-10-10 18:35:19,057 - CIFAR-100_Training - INFO -      BatchNorm2d-118            [-1, 512, 4, 4]           1,024
2025-10-10 18:35:19,057 - CIFAR-100_Training - INFO -             ReLU-119            [-1, 512, 4, 4]               0
2025-10-10 18:35:19,058 - CIFAR-100_Training - INFO -        Dropout2d-120            [-1, 512, 4, 4]               0
2025-10-10 18:35:19,058 - CIFAR-100_Training - INFO -       BasicBlock-121            [-1, 512, 4, 4]               0
2025-10-10 18:35:19,058 - CIFAR-100_Training - INFO -           Conv2d-122            [-1, 512, 4, 4]       2,359,296
2025-10-10 18:35:19,058 - CIFAR-100_Training - INFO -      BatchNorm2d-123            [-1, 512, 4, 4]           1,024
2025-10-10 18:35:19,060 - CIFAR-100_Training - INFO -             ReLU-124            [-1, 512, 4, 4]               0
2025-10-10 18:35:19,060 - CIFAR-100_Training - INFO -           Conv2d-125            [-1, 512, 4, 4]       2,359,296
2025-10-10 18:35:19,060 - CIFAR-100_Training - INFO -      BatchNorm2d-126            [-1, 512, 4, 4]           1,024
2025-10-10 18:35:19,060 - CIFAR-100_Training - INFO -             ReLU-127            [-1, 512, 4, 4]               0
2025-10-10 18:35:19,060 - CIFAR-100_Training - INFO -        Dropout2d-128            [-1, 512, 4, 4]               0
2025-10-10 18:35:19,060 - CIFAR-100_Training - INFO -       BasicBlock-129            [-1, 512, 4, 4]               0
2025-10-10 18:35:19,060 - CIFAR-100_Training - INFO -           Conv2d-130            [-1, 512, 4, 4]       2,359,296
2025-10-10 18:35:19,060 - CIFAR-100_Training - INFO -      BatchNorm2d-131            [-1, 512, 4, 4]           1,024
2025-10-10 18:35:19,060 - CIFAR-100_Training - INFO -             ReLU-132            [-1, 512, 4, 4]               0
2025-10-10 18:35:19,060 - CIFAR-100_Training - INFO -           Conv2d-133            [-1, 512, 4, 4]       2,359,296
2025-10-10 18:35:19,060 - CIFAR-100_Training - INFO -      BatchNorm2d-134            [-1, 512, 4, 4]           1,024
2025-10-10 18:35:19,060 - CIFAR-100_Training - INFO -             ReLU-135            [-1, 512, 4, 4]               0
2025-10-10 18:35:19,060 - CIFAR-100_Training - INFO -        Dropout2d-136            [-1, 512, 4, 4]               0
2025-10-10 18:35:19,060 - CIFAR-100_Training - INFO -       BasicBlock-137            [-1, 512, 4, 4]               0
2025-10-10 18:35:19,062 - CIFAR-100_Training - INFO - AdaptiveAvgPool2d-138            [-1, 512, 1, 1]               0
2025-10-10 18:35:19,062 - CIFAR-100_Training - INFO -          Dropout-139                  [-1, 512]               0
2025-10-10 18:35:19,062 - CIFAR-100_Training - INFO -           Linear-140                  [-1, 100]          51,300
2025-10-10 18:35:19,062 - CIFAR-100_Training - INFO - ================================================================
2025-10-10 18:35:19,062 - CIFAR-100_Training - INFO - Total params: 21,328,292
2025-10-10 18:35:19,062 - CIFAR-100_Training - INFO - Trainable params: 21,328,292
2025-10-10 18:35:19,062 - CIFAR-100_Training - INFO - Non-trainable params: 0
2025-10-10 18:35:19,062 - CIFAR-100_Training - INFO - ----------------------------------------------------------------
…
