…
2025-10-10 18:11:50,694 - CIFAR-100_Training - INFO - DETAILED MODEL ARCHITECTURE SUMMARY
2025-10-10 18:11:50,694 - CIFAR-100_Training - INFO - ==================================================
2025-10-10 18:11:50,694 - CIFAR-100_Training - INFO - ----------------------------------------------------------------
2025-10-10 18:11:50,694 - CIFAR-100_Training - INFO -         Layer (type)               Output Shape         Param #
2025-10-10 18:11:50,694 - CIFAR-100_Training - INFO - ================================================================
2025-10-10 18:11:50,694 - CIFAR-100_Training - INFO -             Conv2d-1           [-1, 64, 32, 32]           1,728
2025-10-10 18:11:50,694 - CIFAR-100_Training - INFO -        BatchNorm2d-2           [-1, 64, 32, 32]             128
2025-10-10 18:11:50,694 - CIFAR-100_Training - INFO -               ReLU-3           [-1, 64, 32, 32]               0
2025-10-10 18:11:50,694 - CIFAR-100_Training - INFO -             Conv2d-4           [-1, 64, 32, 32]          36,864
2025-10-10 18:11:50,694 - CIFAR-100_Training - INFO -        BatchNorm2d-5           [-1, 64, 32, 32]             128
2025-10-10 18:11:50,694 - CIFAR-100_Training - INFO -               ReLU-6           [-1, 64, 32, 32]               0
2025-10-10 18:11:50,694 - CIFAR-100_Training - INFO -             Conv2d-7           [-1, 64, 32, 32]          36,864
2025-10-10 18:11:50,694 - CIFAR-100_Training - INFO -        BatchNorm2d-8           [-1, 64, 32, 32]             128
2025-10-10 18:11:50,694 - CIFAR-100_Training - INFO -               ReLU-9           [-1, 64, 32, 32]               0
2025-10-10 18:11:50,694 - CIFAR-100_Training - INFO -        BasicBlock-10           [-1, 64, 32, 32]               0
2025-10-10 18:11:50,694 - CIFAR-100_Training - INFO -            Conv2d-11           [-1, 64, 32, 32]          36,864
2025-10-10 18:11:50,694 - CIFAR-100_Training - INFO -       BatchNorm2d-12           [-1, 64, 32, 32]             128
2025-10-10 18:11:50,694 - CIFAR-100_Training - INFO -              ReLU-13           [-1, 64, 32, 32]               0
2025-10-10 18:11:50,694 - CIFAR-100_Training - INFO -            Conv2d-14           [-1, 64, 32, 32]          36,864
2025-10-10 18:11:50,694 - CIFAR-100_Training - INFO -       BatchNorm2d-15           [-1, 64, 32, 32]             128
2025-10-10 18:11:50,694 - CIFAR-100_Training - INFO -              ReLU-16           [-1, 64, 32, 32]               0
2025-10-10 18:11:50,694 - CIFAR-100_Training - INFO -        BasicBlock-17           [-1, 64, 32, 32]               0
2025-10-10 18:11:50,694 - CIFAR-100_Training - INFO -           Dropout-18           [-1, 64, 32, 32]               0
2025-10-10 18:11:50,694 - CIFAR-100_Training - INFO -            Conv2d-19          [-1, 128, 16, 16]          73,728
2025-10-10 18:11:50,694 - CIFAR-100_Training - INFO -       BatchNorm2d-20          [-1, 128, 16, 16]             256
2025-10-10 18:11:50,694 - CIFAR-100_Training - INFO -              ReLU-21          [-1, 128, 16, 16]               0
2025-10-10 18:11:50,694 - CIFAR-100_Training - INFO -            Conv2d-22          [-1, 128, 16, 16]         147,456
2025-10-10 18:11:50,694 - CIFAR-100_Training - INFO -       BatchNorm2d-23          [-1, 128, 16, 16]             256
2025-10-10 18:11:50,694 - CIFAR-100_Training - INFO -            Conv2d-24          [-1, 128, 16, 16]           8,192
2025-10-10 18:11:50,694 - CIFAR-100_Training - INFO -       BatchNorm2d-25          [-1, 128, 16, 16]             256
2025-10-10 18:11:50,694 - CIFAR-100_Training - INFO -              ReLU-26          [-1, 128, 16, 16]               0
2025-10-10 18:11:50,694 - CIFAR-100_Training - INFO -        BasicBlock-27          [-1, 128, 16, 16]               0
2025-10-10 18:11:50,694 - CIFAR-100_Training - INFO -            Conv2d-28          [-1, 128, 16, 16]         147,456
2025-10-10 18:11:50,694 - CIFAR-100_Training - INFO -       BatchNorm2d-29          [-1, 128, 16, 16]             256
2025-10-10 18:11:50,694 - CIFAR-100_Training - INFO -              ReLU-30          [-1, 128, 16, 16]               0
2025-10-10 18:11:50,694 - CIFAR-100_Training - INFO -            Conv2d-31          [-1, 128, 16, 16]         147,456
2025-10-10 18:11:50,694 - CIFAR-100_Training - INFO -       BatchNorm2d-32          [-1, 128, 16, 16]             256
2025-10-10 18:11:50,694 - CIFAR-100_Training - INFO -              ReLU-33          [-1, 128, 16, 16]               0
2025-10-10 18:11:50,694 - CIFAR-100_Training - INFO -        BasicBlock-34          [-1, 128, 16, 16]               0
2025-10-10 18:11:50,694 - CIFAR-100_Training - INFO -           Dropout-35          [-1, 128, 16, 16]               0
2025-10-10 18:11:50,694 - CIFAR-100_Training - INFO -            Conv2d-36            [-1, 256, 8, 8]         294,912
2025-10-10 18:11:50,694 - CIFAR-100_Training - INFO -       BatchNorm2d-37            [-1, 256, 8, 8]             512
2025-10-10 18:11:50,694 - CIFAR-100_Training - INFO -              ReLU-38            [-1, 256, 8, 8]               0
2025-10-10 18:11:50,694 - CIFAR-100_Training - INFO -            Conv2d-39            [-1, 256, 8, 8]         589,824
2025-10-10 18:11:50,694 - CIFAR-100_Training - INFO -       BatchNorm2d-40            [-1, 256, 8, 8]             512
2025-10-10 18:11:50,694 - CIFAR-100_Training - INFO -            Conv2d-41            [-1, 256, 8, 8]          32,768
2025-10-10 18:11:50,694 - CIFAR-100_Training - INFO -       BatchNorm2d-42            [-1, 256, 8, 8]             512
2025-10-10 18:11:50,694 - CIFAR-100_Training - INFO -              ReLU-43            [-1, 256, 8, 8]               0
2025-10-10 18:11:50,694 - CIFAR-100_Training - INFO -        BasicBlock-44            [-1, 256, 8, 8]               0
2025-10-10 18:11:50,705 - CIFAR-100_Training - INFO -            Conv2d-45            [-1, 256, 8, 8]         589,824
2025-10-10 18:11:50,705 - CIFAR-100_Training - INFO -       BatchNorm2d-46            [-1, 256, 8, 8]             512
2025-10-10 18:11:50,705 - CIFAR-100_Training - INFO -              ReLU-47            [-1, 256, 8, 8]               0
2025-10-10 18:11:50,705 - CIFAR-100_Training - INFO -            Conv2d-48            [-1, 256, 8, 8]         589,824
2025-10-10 18:11:50,705 - CIFAR-100_Training - INFO -       BatchNorm2d-49            [-1, 256, 8, 8]             512
2025-10-10 18:11:50,705 - CIFAR-100_Training - INFO -              ReLU-50            [-1, 256, 8, 8]               0
2025-10-10 18:11:50,705 - CIFAR-100_Training - INFO -        BasicBlock-51            [-1, 256, 8, 8]               0
2025-10-10 18:11:50,705 - CIFAR-100_Training - INFO -           Dropout-52            [-1, 256, 8, 8]               0
2025-10-10 18:11:50,705 - CIFAR-100_Training - INFO -            Conv2d-53            [-1, 512, 4, 4]       1,179,648
2025-10-10 18:11:50,705 - CIFAR-100_Training - INFO -       BatchNorm2d-54            [-1, 512, 4, 4]           1,024
2025-10-10 18:11:50,705 - CIFAR-100_Training - INFO -              ReLU-55            [-1, 512, 4, 4]               0
2025-10-10 18:11:50,705 - CIFAR-100_Training - INFO -            Conv2d-56            [-1, 512, 4, 4]       2,359,296
2025-10-10 18:11:50,705 - CIFAR-100_Training - INFO -       BatchNorm2d-57            [-1, 512, 4, 4]           1,024
2025-10-10 18:11:50,705 - CIFAR-100_Training - INFO -            Conv2d-58            [-1, 512, 4, 4]         131,072
2025-10-10 18:11:50,707 - CIFAR-100_Training - INFO -       BatchNorm2d-59            [-1, 512, 4, 4]           1,024
2025-10-10 18:11:50,707 - CIFAR-100_Training - INFO -              ReLU-60            [-1, 512, 4, 4]               0
2025-10-10 18:11:50,707 - CIFAR-100_Training - INFO -        BasicBlock-61            [-1, 512, 4, 4]               0
2025-10-10 18:11:50,707 - CIFAR-100_Training - INFO -            Conv2d-62            [-1, 512, 4, 4]       2,359,296
2025-10-10 18:11:50,707 - CIFAR-100_Training - INFO -       BatchNorm2d-63            [-1, 512, 4, 4]           1,024
2025-10-10 18:11:50,707 - CIFAR-100_Training - INFO -              ReLU-64            [-1, 512, 4, 4]               0
2025-10-10 18:11:50,707 - CIFAR-100_Training - INFO -            Conv2d-65            [-1, 512, 4, 4]       2,359,296
2025-10-10 18:11:50,707 - CIFAR-100_Training - INFO -       BatchNorm2d-66            [-1, 512, 4, 4]           1,024
2025-10-10 18:11:50,707 - CIFAR-100_Training - INFO -              ReLU-67            [-1, 512, 4, 4]               0
2025-10-10 18:11:50,707 - CIFAR-100_Training - INFO -        BasicBlock-68            [-1, 512, 4, 4]               0
2025-10-10 18:11:50,707 - CIFAR-100_Training - INFO -           Dropout-69            [-1, 512, 4, 4]               0
2025-10-10 18:11:50,709 - CIFAR-100_Training - INFO - AdaptiveAvgPool2d-70            [-1, 512, 1, 1]               0
2025-10-10 18:11:50,709 - CIFAR-100_Training - INFO -           Dropout-71                  [-1, 512]               0
2025-10-10 18:11:50,709 - CIFAR-100_Training - INFO -            Linear-72                  [-1, 100]          51,300
2025-10-10 18:11:50,709 - CIFAR-100_Training - INFO - ================================================================
2025-10-10 18:11:50,709 - CIFAR-100_Training - INFO - Total params: 11,220,132
2025-10-10 18:11:50,709 - CIFAR-100_Training - INFO - Trainable params: 11,220,132
2025-10-10 18:11:50,709 - CIFAR-100_Training - INFO - Non-trainable params: 0
2025-10-10 18:11:50,710 - CIFAR-100_Training - INFO - ----------------------------------------------------------------
…
