…
2025-10-13 20:13:50,409 - CIFAR-100_Training - INFO - DETAILED MODEL ARCHITECTURE SUMMARY
2025-10-13 20:13:50,409 - CIFAR-100_Training - INFO - ==================================================
2025-10-13 20:13:50,409 - CIFAR-100_Training - INFO - ----------------------------------------------------------------
2025-10-13 20:13:50,409 - CIFAR-100_Training - INFO -         Layer (type)               Output Shape         Param #
2025-10-13 20:13:50,409 - CIFAR-100_Training - INFO - ================================================================
2025-10-13 20:13:50,409 - CIFAR-100_Training - INFO -             Conv2d-1           [-1, 64, 32, 32]           1,728
2025-10-13 20:13:50,409 - CIFAR-100_Training - INFO -        BatchNorm2d-2           [-1, 64, 32, 32]             128
2025-10-13 20:13:50,409 - CIFAR-100_Training - INFO -               ReLU-3           [-1, 64, 32, 32]               0
2025-10-13 20:13:50,409 - CIFAR-100_Training - INFO -             Conv2d-4           [-1, 64, 32, 32]          36,864
2025-10-13 20:13:50,409 - CIFAR-100_Training - INFO -        BatchNorm2d-5           [-1, 64, 32, 32]             128
2025-10-13 20:13:50,409 - CIFAR-100_Training - INFO -               ReLU-6           [-1, 64, 32, 32]               0
2025-10-13 20:13:50,409 - CIFAR-100_Training - INFO -             Conv2d-7           [-1, 64, 32, 32]          36,864
2025-10-13 20:13:50,409 - CIFAR-100_Training - INFO -        BatchNorm2d-8           [-1, 64, 32, 32]             128
2025-10-13 20:13:50,409 - CIFAR-100_Training - INFO -               ReLU-9           [-1, 64, 32, 32]               0
2025-10-13 20:13:50,409 - CIFAR-100_Training - INFO -        BasicBlock-10           [-1, 64, 32, 32]               0
2025-10-13 20:13:50,418 - CIFAR-100_Training - INFO -            Conv2d-11           [-1, 64, 32, 32]          36,864
2025-10-13 20:13:50,418 - CIFAR-100_Training - INFO -       BatchNorm2d-12           [-1, 64, 32, 32]             128
2025-10-13 20:13:50,418 - CIFAR-100_Training - INFO -              ReLU-13           [-1, 64, 32, 32]               0
2025-10-13 20:13:50,418 - CIFAR-100_Training - INFO -            Conv2d-14           [-1, 64, 32, 32]          36,864
2025-10-13 20:13:50,418 - CIFAR-100_Training - INFO -       BatchNorm2d-15           [-1, 64, 32, 32]             128
2025-10-13 20:13:50,418 - CIFAR-100_Training - INFO -              ReLU-16           [-1, 64, 32, 32]               0
2025-10-13 20:13:50,418 - CIFAR-100_Training - INFO -        BasicBlock-17           [-1, 64, 32, 32]               0
2025-10-13 20:13:50,418 - CIFAR-100_Training - INFO -            Conv2d-18           [-1, 64, 32, 32]          36,864
2025-10-13 20:13:50,418 - CIFAR-100_Training - INFO -       BatchNorm2d-19           [-1, 64, 32, 32]             128
2025-10-13 20:13:50,418 - CIFAR-100_Training - INFO -              ReLU-20           [-1, 64, 32, 32]               0
2025-10-13 20:13:50,418 - CIFAR-100_Training - INFO -            Conv2d-21           [-1, 64, 32, 32]          36,864
2025-10-13 20:13:50,418 - CIFAR-100_Training - INFO -       BatchNorm2d-22           [-1, 64, 32, 32]             128
2025-10-13 20:13:50,420 - CIFAR-100_Training - INFO -              ReLU-23           [-1, 64, 32, 32]               0
2025-10-13 20:13:50,420 - CIFAR-100_Training - INFO -        BasicBlock-24           [-1, 64, 32, 32]               0
2025-10-13 20:13:50,420 - CIFAR-100_Training - INFO -            Conv2d-25          [-1, 128, 16, 16]          73,728
2025-10-13 20:13:50,420 - CIFAR-100_Training - INFO -       BatchNorm2d-26          [-1, 128, 16, 16]             256
2025-10-13 20:13:50,422 - CIFAR-100_Training - INFO -              ReLU-27          [-1, 128, 16, 16]               0
2025-10-13 20:13:50,422 - CIFAR-100_Training - INFO -            Conv2d-28          [-1, 128, 16, 16]         147,456
2025-10-13 20:13:50,422 - CIFAR-100_Training - INFO -       BatchNorm2d-29          [-1, 128, 16, 16]             256
2025-10-13 20:13:50,422 - CIFAR-100_Training - INFO -            Conv2d-30          [-1, 128, 16, 16]           8,192
2025-10-13 20:13:50,422 - CIFAR-100_Training - INFO -       BatchNorm2d-31          [-1, 128, 16, 16]             256
2025-10-13 20:13:50,422 - CIFAR-100_Training - INFO -              ReLU-32          [-1, 128, 16, 16]               0
2025-10-13 20:13:50,422 - CIFAR-100_Training - INFO -        BasicBlock-33          [-1, 128, 16, 16]               0
2025-10-13 20:13:50,422 - CIFAR-100_Training - INFO -            Conv2d-34          [-1, 128, 16, 16]         147,456
2025-10-13 20:13:50,422 - CIFAR-100_Training - INFO -       BatchNorm2d-35          [-1, 128, 16, 16]             256
2025-10-13 20:13:50,422 - CIFAR-100_Training - INFO -              ReLU-36          [-1, 128, 16, 16]               0
2025-10-13 20:13:50,424 - CIFAR-100_Training - INFO -            Conv2d-37          [-1, 128, 16, 16]         147,456
2025-10-13 20:13:50,424 - CIFAR-100_Training - INFO -       BatchNorm2d-38          [-1, 128, 16, 16]             256
2025-10-13 20:13:50,424 - CIFAR-100_Training - INFO -              ReLU-39          [-1, 128, 16, 16]               0
2025-10-13 20:13:50,424 - CIFAR-100_Training - INFO -        BasicBlock-40          [-1, 128, 16, 16]               0
2025-10-13 20:13:50,426 - CIFAR-100_Training - INFO -            Conv2d-41          [-1, 128, 16, 16]         147,456
2025-10-13 20:13:50,426 - CIFAR-100_Training - INFO -       BatchNorm2d-42          [-1, 128, 16, 16]             256
2025-10-13 20:13:50,426 - CIFAR-100_Training - INFO -              ReLU-43          [-1, 128, 16, 16]               0
2025-10-13 20:13:50,426 - CIFAR-100_Training - INFO -            Conv2d-44          [-1, 128, 16, 16]         147,456
2025-10-13 20:13:50,426 - CIFAR-100_Training - INFO -       BatchNorm2d-45          [-1, 128, 16, 16]             256
2025-10-13 20:13:50,426 - CIFAR-100_Training - INFO -              ReLU-46          [-1, 128, 16, 16]               0
2025-10-13 20:13:50,426 - CIFAR-100_Training - INFO -        BasicBlock-47          [-1, 128, 16, 16]               0
2025-10-13 20:13:50,426 - CIFAR-100_Training - INFO -            Conv2d-48          [-1, 128, 16, 16]         147,456
2025-10-13 20:13:50,426 - CIFAR-100_Training - INFO -       BatchNorm2d-49          [-1, 128, 16, 16]             256
2025-10-13 20:13:50,426 - CIFAR-100_Training - INFO -              ReLU-50          [-1, 128, 16, 16]               0
2025-10-13 20:13:50,426 - CIFAR-100_Training - INFO -            Conv2d-51          [-1, 128, 16, 16]         147,456
2025-10-13 20:13:50,426 - CIFAR-100_Training - INFO -       BatchNorm2d-52          [-1, 128, 16, 16]             256
2025-10-13 20:13:50,426 - CIFAR-100_Training - INFO -              ReLU-53          [-1, 128, 16, 16]               0
2025-10-13 20:13:50,426 - CIFAR-100_Training - INFO -        BasicBlock-54          [-1, 128, 16, 16]               0
2025-10-13 20:13:50,426 - CIFAR-100_Training - INFO -            Conv2d-55            [-1, 256, 8, 8]         294,912
2025-10-13 20:13:50,431 - CIFAR-100_Training - INFO -       BatchNorm2d-56            [-1, 256, 8, 8]             512
2025-10-13 20:13:50,431 - CIFAR-100_Training - INFO -              ReLU-57            [-1, 256, 8, 8]               0
2025-10-13 20:13:50,432 - CIFAR-100_Training - INFO -            Conv2d-58            [-1, 256, 8, 8]         589,824
2025-10-13 20:13:50,432 - CIFAR-100_Training - INFO -       BatchNorm2d-59            [-1, 256, 8, 8]             512
2025-10-13 20:13:50,432 - CIFAR-100_Training - INFO -            Conv2d-60            [-1, 256, 8, 8]          32,768
2025-10-13 20:13:50,432 - CIFAR-100_Training - INFO -       BatchNorm2d-61            [-1, 256, 8, 8]             512
2025-10-13 20:13:50,432 - CIFAR-100_Training - INFO -              ReLU-62            [-1, 256, 8, 8]               0
2025-10-13 20:13:50,434 - CIFAR-100_Training - INFO -        BasicBlock-63            [-1, 256, 8, 8]               0
2025-10-13 20:13:50,434 - CIFAR-100_Training - INFO -            Conv2d-64            [-1, 256, 8, 8]         589,824
2025-10-13 20:13:50,434 - CIFAR-100_Training - INFO -       BatchNorm2d-65            [-1, 256, 8, 8]             512
2025-10-13 20:13:50,434 - CIFAR-100_Training - INFO -              ReLU-66            [-1, 256, 8, 8]               0
2025-10-13 20:13:50,434 - CIFAR-100_Training - INFO -            Conv2d-67            [-1, 256, 8, 8]         589,824
2025-10-13 20:13:50,434 - CIFAR-100_Training - INFO -       BatchNorm2d-68            [-1, 256, 8, 8]             512
2025-10-13 20:13:50,434 - CIFAR-100_Training - INFO -              ReLU-69            [-1, 256, 8, 8]               0
2025-10-13 20:13:50,434 - CIFAR-100_Training - INFO -        BasicBlock-70            [-1, 256, 8, 8]               0
2025-10-13 20:13:50,434 - CIFAR-100_Training - INFO -            Conv2d-71            [-1, 256, 8, 8]         589,824
2025-10-13 20:13:50,437 - CIFAR-100_Training - INFO -       BatchNorm2d-72            [-1, 256, 8, 8]             512
2025-10-13 20:13:50,437 - CIFAR-100_Training - INFO -              ReLU-73            [-1, 256, 8, 8]               0
2025-10-13 20:13:50,437 - CIFAR-100_Training - INFO -            Conv2d-74            [-1, 256, 8, 8]         589,824
2025-10-13 20:13:50,439 - CIFAR-100_Training - INFO -       BatchNorm2d-75            [-1, 256, 8, 8]             512
2025-10-13 20:13:50,439 - CIFAR-100_Training - INFO -              ReLU-76            [-1, 256, 8, 8]               0
2025-10-13 20:13:50,439 - CIFAR-100_Training - INFO -        BasicBlock-77            [-1, 256, 8, 8]               0
2025-10-13 20:13:50,439 - CIFAR-100_Training - INFO -            Conv2d-78            [-1, 256, 8, 8]         589,824
2025-10-13 20:13:50,439 - CIFAR-100_Training - INFO -       BatchNorm2d-79            [-1, 256, 8, 8]             512
2025-10-13 20:13:50,439 - CIFAR-100_Training - INFO -              ReLU-80            [-1, 256, 8, 8]               0
2025-10-13 20:13:50,442 - CIFAR-100_Training - INFO -            Conv2d-81            [-1, 256, 8, 8]         589,824
2025-10-13 20:13:50,442 - CIFAR-100_Training - INFO -       BatchNorm2d-82            [-1, 256, 8, 8]             512
2025-10-13 20:13:50,442 - CIFAR-100_Training - INFO -              ReLU-83            [-1, 256, 8, 8]               0
2025-10-13 20:13:50,444 - CIFAR-100_Training - INFO -        BasicBlock-84            [-1, 256, 8, 8]               0
2025-10-13 20:13:50,444 - CIFAR-100_Training - INFO -            Conv2d-85            [-1, 256, 8, 8]         589,824
2025-10-13 20:13:50,445 - CIFAR-100_Training - INFO -       BatchNorm2d-86            [-1, 256, 8, 8]             512
2025-10-13 20:13:50,445 - CIFAR-100_Training - INFO -              ReLU-87            [-1, 256, 8, 8]               0
2025-10-13 20:13:50,445 - CIFAR-100_Training - INFO -            Conv2d-88            [-1, 256, 8, 8]         589,824
2025-10-13 20:13:50,445 - CIFAR-100_Training - INFO -       BatchNorm2d-89            [-1, 256, 8, 8]             512
2025-10-13 20:13:50,445 - CIFAR-100_Training - INFO -              ReLU-90            [-1, 256, 8, 8]               0
2025-10-13 20:13:50,445 - CIFAR-100_Training - INFO -        BasicBlock-91            [-1, 256, 8, 8]               0
2025-10-13 20:13:50,445 - CIFAR-100_Training - INFO -            Conv2d-92            [-1, 256, 8, 8]         589,824
2025-10-13 20:13:50,445 - CIFAR-100_Training - INFO -       BatchNorm2d-93            [-1, 256, 8, 8]             512
2025-10-13 20:13:50,445 - CIFAR-100_Training - INFO -              ReLU-94            [-1, 256, 8, 8]               0
2025-10-13 20:13:50,445 - CIFAR-100_Training - INFO -            Conv2d-95            [-1, 256, 8, 8]         589,824
2025-10-13 20:13:50,445 - CIFAR-100_Training - INFO -       BatchNorm2d-96            [-1, 256, 8, 8]             512
2025-10-13 20:13:50,445 - CIFAR-100_Training - INFO -              ReLU-97            [-1, 256, 8, 8]               0
2025-10-13 20:13:50,445 - CIFAR-100_Training - INFO -        BasicBlock-98            [-1, 256, 8, 8]               0
2025-10-13 20:13:50,445 - CIFAR-100_Training - INFO -            Conv2d-99            [-1, 512, 4, 4]       1,179,648
2025-10-13 20:13:50,445 - CIFAR-100_Training - INFO -      BatchNorm2d-100            [-1, 512, 4, 4]           1,024
2025-10-13 20:13:50,450 - CIFAR-100_Training - INFO -             ReLU-101            [-1, 512, 4, 4]               0
2025-10-13 20:13:50,450 - CIFAR-100_Training - INFO -           Conv2d-102            [-1, 512, 4, 4]       2,359,296
2025-10-13 20:13:50,450 - CIFAR-100_Training - INFO -      BatchNorm2d-103            [-1, 512, 4, 4]           1,024
2025-10-13 20:13:50,450 - CIFAR-100_Training - INFO -           Conv2d-104            [-1, 512, 4, 4]         131,072
2025-10-13 20:13:50,450 - CIFAR-100_Training - INFO -      BatchNorm2d-105            [-1, 512, 4, 4]           1,024
2025-10-13 20:13:50,450 - CIFAR-100_Training - INFO -             ReLU-106            [-1, 512, 4, 4]               0
2025-10-13 20:13:50,450 - CIFAR-100_Training - INFO -       BasicBlock-107            [-1, 512, 4, 4]               0
2025-10-13 20:13:50,452 - CIFAR-100_Training - INFO -           Conv2d-108            [-1, 512, 4, 4]       2,359,296
2025-10-13 20:13:50,452 - CIFAR-100_Training - INFO -      BatchNorm2d-109            [-1, 512, 4, 4]           1,024
2025-10-13 20:13:50,453 - CIFAR-100_Training - INFO -             ReLU-110            [-1, 512, 4, 4]               0
2025-10-13 20:13:50,453 - CIFAR-100_Training - INFO -           Conv2d-111            [-1, 512, 4, 4]       2,359,296
2025-10-13 20:13:50,453 - CIFAR-100_Training - INFO -      BatchNorm2d-112            [-1, 512, 4, 4]           1,024
2025-10-13 20:13:50,453 - CIFAR-100_Training - INFO -             ReLU-113            [-1, 512, 4, 4]               0
2025-10-13 20:13:50,453 - CIFAR-100_Training - INFO -       BasicBlock-114            [-1, 512, 4, 4]               0
2025-10-13 20:13:50,453 - CIFAR-100_Training - INFO -           Conv2d-115            [-1, 512, 4, 4]       2,359,296
2025-10-13 20:13:50,453 - CIFAR-100_Training - INFO -      BatchNorm2d-116            [-1, 512, 4, 4]           1,024
2025-10-13 20:13:50,453 - CIFAR-100_Training - INFO -             ReLU-117            [-1, 512, 4, 4]               0
2025-10-13 20:13:50,453 - CIFAR-100_Training - INFO -           Conv2d-118            [-1, 512, 4, 4]       2,359,296
2025-10-13 20:13:50,453 - CIFAR-100_Training - INFO -      BatchNorm2d-119            [-1, 512, 4, 4]           1,024
2025-10-13 20:13:50,453 - CIFAR-100_Training - INFO -             ReLU-120            [-1, 512, 4, 4]               0
2025-10-13 20:13:50,453 - CIFAR-100_Training - INFO -       BasicBlock-121            [-1, 512, 4, 4]               0
2025-10-13 20:13:50,456 - CIFAR-100_Training - INFO - AdaptiveAvgPool2d-122            [-1, 512, 1, 1]               0
2025-10-13 20:13:50,456 - CIFAR-100_Training - INFO -          Dropout-123                  [-1, 512]               0
2025-10-13 20:13:50,456 - CIFAR-100_Training - INFO -           Linear-124                 [-1, 1000]         513,000
2025-10-13 20:13:50,456 - CIFAR-100_Training - INFO -          Dropout-125                 [-1, 1000]               0
2025-10-13 20:13:50,457 - CIFAR-100_Training - INFO -           Linear-126                  [-1, 100]         100,100
2025-10-13 20:13:50,458 - CIFAR-100_Training - INFO - ================================================================
2025-10-13 20:13:50,458 - CIFAR-100_Training - INFO - Total params: 21,890,092
2025-10-13 20:13:50,458 - CIFAR-100_Training - INFO - Trainable params: 21,890,092
2025-10-13 20:13:50,458 - CIFAR-100_Training - INFO - Non-trainable params: 0
2025-10-13 20:13:50,458 - CIFAR-100_Training - INFO - ----------------------------------------------------------------
…
