…
2025-09-26 23:37:21,037 - MNIST_Training - INFO - DETAILED MODEL ARCHITECTURE SUMMARY
2025-09-26 23:37:21,037 - MNIST_Training - INFO - ==================================================
2025-09-26 23:37:21,037 - MNIST_Training - INFO - ----------------------------------------------------------------
2025-09-26 23:37:21,038 - MNIST_Training - INFO -         Layer (type)               Output Shape         Param #
2025-09-26 23:37:21,040 - MNIST_Training - INFO - ================================================================
2025-09-26 23:37:21,040 - MNIST_Training - INFO -             Conv2d-1           [-1, 10, 28, 28]              90
2025-09-26 23:37:21,040 - MNIST_Training - INFO -        BatchNorm2d-2           [-1, 10, 28, 28]              20
2025-09-26 23:37:21,040 - MNIST_Training - INFO -               ReLU-3           [-1, 10, 28, 28]               0
2025-09-26 23:37:21,043 - MNIST_Training - INFO -             Conv2d-4           [-1, 10, 28, 28]             900
2025-09-26 23:37:21,044 - MNIST_Training - INFO -        BatchNorm2d-5           [-1, 10, 28, 28]              20
2025-09-26 23:37:21,046 - MNIST_Training - INFO -               ReLU-6           [-1, 10, 28, 28]               0
2025-09-26 23:37:21,046 - MNIST_Training - INFO -            Dropout-7           [-1, 10, 28, 28]               0
2025-09-26 23:37:21,048 - MNIST_Training - INFO -             Conv2d-8           [-1, 10, 28, 28]             900
2025-09-26 23:37:21,048 - MNIST_Training - INFO -        BatchNorm2d-9           [-1, 10, 28, 28]              20
2025-09-26 23:37:21,060 - MNIST_Training - INFO -              ReLU-10           [-1, 10, 28, 28]               0
2025-09-26 23:37:21,062 - MNIST_Training - INFO -           Dropout-11           [-1, 10, 28, 28]               0
2025-09-26 23:37:21,071 - MNIST_Training - INFO -         MaxPool2d-12           [-1, 10, 14, 14]               0
2025-09-26 23:37:21,073 - MNIST_Training - INFO -            Conv2d-13            [-1, 8, 14, 14]             720
2025-09-26 23:37:21,075 - MNIST_Training - INFO -       BatchNorm2d-14            [-1, 8, 14, 14]              16
2025-09-26 23:37:21,076 - MNIST_Training - INFO -              ReLU-15            [-1, 8, 14, 14]               0
2025-09-26 23:37:21,076 - MNIST_Training - INFO -           Dropout-16            [-1, 8, 14, 14]               0
2025-09-26 23:37:21,084 - MNIST_Training - INFO -            Conv2d-17            [-1, 8, 14, 14]             576
2025-09-26 23:37:21,087 - MNIST_Training - INFO -       BatchNorm2d-18            [-1, 8, 14, 14]              16
2025-09-26 23:37:21,089 - MNIST_Training - INFO -              ReLU-19            [-1, 8, 14, 14]               0
2025-09-26 23:37:21,091 - MNIST_Training - INFO -           Dropout-20            [-1, 8, 14, 14]               0
2025-09-26 23:37:21,096 - MNIST_Training - INFO -         MaxPool2d-21              [-1, 8, 7, 7]               0
2025-09-26 23:37:21,096 - MNIST_Training - INFO -            Conv2d-22              [-1, 8, 5, 5]             576
2025-09-26 23:37:21,100 - MNIST_Training - INFO -       BatchNorm2d-23              [-1, 8, 5, 5]              16
2025-09-26 23:37:21,100 - MNIST_Training - INFO -              ReLU-24              [-1, 8, 5, 5]               0
2025-09-26 23:37:21,102 - MNIST_Training - INFO -           Dropout-25              [-1, 8, 5, 5]               0
2025-09-26 23:37:21,102 - MNIST_Training - INFO -            Conv2d-26              [-1, 8, 3, 3]             576
2025-09-26 23:37:21,102 - MNIST_Training - INFO -       BatchNorm2d-27              [-1, 8, 3, 3]              16
2025-09-26 23:37:21,102 - MNIST_Training - INFO -              ReLU-28              [-1, 8, 3, 3]               0
2025-09-26 23:37:21,104 - MNIST_Training - INFO -           Dropout-29              [-1, 8, 3, 3]               0
2025-09-26 23:37:21,114 - MNIST_Training - INFO -            Linear-30                   [-1, 20]           1,460
2025-09-26 23:37:21,116 - MNIST_Training - INFO -            Linear-31                   [-1, 10]             210
2025-09-26 23:37:21,116 - MNIST_Training - INFO - ================================================================
2025-09-26 23:37:21,118 - MNIST_Training - INFO - Total params: 6,132
2025-09-26 23:37:21,118 - MNIST_Training - INFO - Trainable params: 6,132
2025-09-26 23:37:21,118 - MNIST_Training - INFO - Non-trainable params: 0
2025-09-26 23:37:21,118 - MNIST_Training - INFO - ----------------------------------------------------------------
…
