…
2025-09-26 23:22:55,363 - MNIST_Training - INFO - DETAILED MODEL ARCHITECTURE SUMMARY
2025-09-26 23:22:55,363 - MNIST_Training - INFO - ==================================================
2025-09-26 23:22:55,364 - MNIST_Training - INFO - ----------------------------------------------------------------
2025-09-26 23:22:55,364 - MNIST_Training - INFO -         Layer (type)               Output Shape         Param #
2025-09-26 23:22:55,364 - MNIST_Training - INFO - ================================================================
2025-09-26 23:22:55,364 - MNIST_Training - INFO -             Conv2d-1           [-1, 10, 28, 28]              90
2025-09-26 23:22:55,365 - MNIST_Training - INFO -        BatchNorm2d-2           [-1, 10, 28, 28]              20
2025-09-26 23:22:55,365 - MNIST_Training - INFO -               ReLU-3           [-1, 10, 28, 28]               0
2025-09-26 23:22:55,365 - MNIST_Training - INFO -             Conv2d-4           [-1, 10, 28, 28]             900
2025-09-26 23:22:55,365 - MNIST_Training - INFO -        BatchNorm2d-5           [-1, 10, 28, 28]              20
2025-09-26 23:22:55,365 - MNIST_Training - INFO -               ReLU-6           [-1, 10, 28, 28]               0
2025-09-26 23:22:55,365 - MNIST_Training - INFO -             Conv2d-7           [-1, 10, 28, 28]             900
2025-09-26 23:22:55,365 - MNIST_Training - INFO -        BatchNorm2d-8           [-1, 10, 28, 28]              20
2025-09-26 23:22:55,365 - MNIST_Training - INFO -               ReLU-9           [-1, 10, 28, 28]               0
2025-09-26 23:22:55,366 - MNIST_Training - INFO -         MaxPool2d-10           [-1, 10, 14, 14]               0
2025-09-26 23:22:55,366 - MNIST_Training - INFO -            Conv2d-11            [-1, 8, 14, 14]             720
2025-09-26 23:22:55,366 - MNIST_Training - INFO -       BatchNorm2d-12            [-1, 8, 14, 14]              16
2025-09-26 23:22:55,366 - MNIST_Training - INFO -              ReLU-13            [-1, 8, 14, 14]               0
2025-09-26 23:22:55,366 - MNIST_Training - INFO -            Conv2d-14            [-1, 8, 14, 14]             576
2025-09-26 23:22:55,366 - MNIST_Training - INFO -       BatchNorm2d-15            [-1, 8, 14, 14]              16
2025-09-26 23:22:55,366 - MNIST_Training - INFO -              ReLU-16            [-1, 8, 14, 14]               0
2025-09-26 23:22:55,366 - MNIST_Training - INFO -         MaxPool2d-17              [-1, 8, 7, 7]               0
2025-09-26 23:22:55,366 - MNIST_Training - INFO -            Conv2d-18              [-1, 8, 5, 5]             576
2025-09-26 23:22:55,366 - MNIST_Training - INFO -       BatchNorm2d-19              [-1, 8, 5, 5]              16
2025-09-26 23:22:55,366 - MNIST_Training - INFO -              ReLU-20              [-1, 8, 5, 5]               0
2025-09-26 23:22:55,367 - MNIST_Training - INFO -            Conv2d-21              [-1, 8, 3, 3]             576
2025-09-26 23:22:55,367 - MNIST_Training - INFO -       BatchNorm2d-22              [-1, 8, 3, 3]              16
2025-09-26 23:22:55,367 - MNIST_Training - INFO -              ReLU-23              [-1, 8, 3, 3]               0
2025-09-26 23:22:55,368 - MNIST_Training - INFO -            Linear-24                   [-1, 20]           1,460
2025-09-26 23:22:55,368 - MNIST_Training - INFO -            Linear-25                   [-1, 10]             210
2025-09-26 23:22:55,368 - MNIST_Training - INFO - ================================================================
2025-09-26 23:22:55,368 - MNIST_Training - INFO - Total params: 6,132
2025-09-26 23:22:55,368 - MNIST_Training - INFO - Trainable params: 6,132
2025-09-26 23:22:55,368 - MNIST_Training - INFO - Non-trainable params: 0
2025-09-26 23:22:55,368 - MNIST_Training - INFO - ----------------------------------------------------------------
…
